…
01-13 02:49:43 INFO ['yolo_v4', 'train', '-e', '/workspace/tasks/yolo_v4/specs/yolo_v4_retrain_kitti_seq_spec.txt', '-r', '/workspace/tasks/yolo_v4/output_retrain', '-k', 'nvidia_tlt', '--gpus', '1', '--gpu_index', '0']
01-13 02:49:43 INFO ----------------
01-13 02:50:24 DEBU __________________________________________________________________________________________________
01-13 02:50:24 DEBU Layer (type)                    Output Shape         Param #     Connected to                     
01-13 02:50:24 DEBU ==================================================================================================
01-13 02:50:24 DEBU Input (InputLayer)              (None, 3, 608, 608)  0                                            
01-13 02:50:24 DEBU __________________________________________________________________________________________________
01-13 02:50:24 DEBU conv1 (Conv2D)                  (None, 16, 608, 608) 432         Input[0][0]                      
01-13 02:50:24 DEBU __________________________________________________________________________________________________
01-13 02:50:24 DEBU conv1_bn (BatchNormalization)   (None, 16, 608, 608) 64          conv1[0][0]                      
01-13 02:50:24 DEBU __________________________________________________________________________________________________
01-13 02:50:24 DEBU conv1_lrelu (LeakyReLU)         (None, 16, 608, 608) 0           conv1_bn[0][0]                   
01-13 02:50:24 DEBU __________________________________________________________________________________________________
01-13 02:50:24 DEBU conv2 (Conv2D)                  (None, 16, 304, 304) 2304        conv1_lrelu[0][0]                
01-13 02:50:24 DEBU __________________________________________________________________________________________________
01-13 02:50:24 DEBU conv2_bn (BatchNormalization)   (None, 16, 304, 304) 64          conv2[0][0]                      
01-13 02:50:24 DEBU __________________________________________________________________________________________________
01-13 02:50:24 DEBU conv2_lrelu (LeakyReLU)         (None, 16, 304, 304) 0           conv2_bn[0][0]                   
01-13 02:50:24 DEBU __________________________________________________________________________________________________
01-13 02:50:24 DEBU b1_conv1_1 (Conv2D)             (None, 24, 304, 304) 384         conv2_lrelu[0][0]                
01-13 02:50:24 DEBU __________________________________________________________________________________________________
01-13 02:50:24 DEBU b1_conv1_1_bn (BatchNormalizati (None, 24, 304, 304) 96          b1_conv1_1[0][0]                 
01-13 02:50:24 DEBU __________________________________________________________________________________________________
01-13 02:50:24 DEBU b1_conv1_1_lrelu (LeakyReLU)    (None, 24, 304, 304) 0           b1_conv1_1_bn[0][0]              
01-13 02:50:24 DEBU __________________________________________________________________________________________________
01-13 02:50:24 DEBU b1_conv1_2 (Conv2D)             (None, 16, 304, 304) 3456        b1_conv1_1_lrelu[0][0]           
01-13 02:50:24 DEBU __________________________________________________________________________________________________
01-13 02:50:24 DEBU b1_conv1_2_bn (BatchNormalizati (None, 16, 304, 304) 64          b1_conv1_2[0][0]                 
01-13 02:50:24 DEBU __________________________________________________________________________________________________
01-13 02:50:24 DEBU b1_conv1_2_lrelu (LeakyReLU)    (None, 16, 304, 304) 0           b1_conv1_2_bn[0][0]              
01-13 02:50:24 DEBU __________________________________________________________________________________________________
01-13 02:50:24 DEBU b1_add1 (Add)                   (None, 16, 304, 304) 0           conv2_lrelu[0][0]                
01-13 02:50:24 DEBU                                                                  b1_conv1_2_lrelu[0][0]           
01-13 02:50:24 DEBU __________________________________________________________________________________________________
01-13 02:50:24 DEBU conv3 (Conv2D)                  (None, 16, 152, 152) 2304        b1_add1[0][0]                    
01-13 02:50:24 DEBU __________________________________________________________________________________________________
01-13 02:50:24 DEBU conv3_bn (BatchNormalization)   (None, 16, 152, 152) 64          conv3[0][0]                      
01-13 02:50:24 DEBU __________________________________________________________________________________________________
01-13 02:50:24 DEBU conv3_lrelu (LeakyReLU)         (None, 16, 152, 152) 0           conv3_bn[0][0]                   
01-13 02:50:24 DEBU __________________________________________________________________________________________________
01-13 02:50:24 DEBU b2_conv1_1 (Conv2D)             (None, 48, 152, 152) 768         conv3_lrelu[0][0]                
01-13 02:50:24 DEBU __________________________________________________________________________________________________
01-13 02:50:24 DEBU b2_conv1_1_bn (BatchNormalizati (None, 48, 152, 152) 192         b2_conv1_1[0][0]                 
01-13 02:50:24 DEBU __________________________________________________________________________________________________
01-13 02:50:24 DEBU b2_conv1_1_lrelu (LeakyReLU)    (None, 48, 152, 152) 0           b2_conv1_1_bn[0][0]              
01-13 02:50:24 DEBU __________________________________________________________________________________________________
01-13 02:50:24 DEBU b2_conv1_2 (Conv2D)             (None, 16, 152, 152) 6912        b2_conv1_1_lrelu[0][0]           
01-13 02:50:24 DEBU __________________________________________________________________________________________________
01-13 02:50:24 DEBU b2_conv1_2_bn (BatchNormalizati (None, 16, 152, 152) 64          b2_conv1_2[0][0]                 
01-13 02:50:24 DEBU __________________________________________________________________________________________________
01-13 02:50:24 DEBU b2_conv1_2_lrelu (LeakyReLU)    (None, 16, 152, 152) 0           b2_conv1_2_bn[0][0]              
01-13 02:50:24 DEBU __________________________________________________________________________________________________
01-13 02:50:24 DEBU b2_add1 (Add)                   (None, 16, 152, 152) 0           conv3_lrelu[0][0]                
01-13 02:50:24 DEBU                                                                  b2_conv1_2_lrelu[0][0]           
01-13 02:50:24 DEBU __________________________________________________________________________________________________
01-13 02:50:24 DEBU b2_conv2_1 (Conv2D)             (None, 64, 152, 152) 1024        b2_add1[0][0]                    
01-13 02:50:24 DEBU __________________________________________________________________________________________________
01-13 02:50:24 DEBU b2_conv2_1_bn (BatchNormalizati (None, 64, 152, 152) 256         b2_conv2_1[0][0]                 
01-13 02:50:24 DEBU __________________________________________________________________________________________________
01-13 02:50:24 DEBU b2_conv2_1_lrelu (LeakyReLU)    (None, 64, 152, 152) 0           b2_conv2_1_bn[0][0]              
01-13 02:50:24 DEBU __________________________________________________________________________________________________
01-13 02:50:24 DEBU b2_conv2_2 (Conv2D)             (None, 16, 152, 152) 9216        b2_conv2_1_lrelu[0][0]           
01-13 02:50:24 DEBU __________________________________________________________________________________________________
01-13 02:50:24 DEBU b2_conv2_2_bn (BatchNormalizati (None, 16, 152, 152) 64          b2_conv2_2[0][0]                 
01-13 02:50:24 DEBU __________________________________________________________________________________________________
01-13 02:50:24 DEBU b2_conv2_2_lrelu (LeakyReLU)    (None, 16, 152, 152) 0           b2_conv2_2_bn[0][0]              
01-13 02:50:24 DEBU __________________________________________________________________________________________________
01-13 02:50:24 DEBU b2_add2 (Add)                   (None, 16, 152, 152) 0           b2_add1[0][0]                    
01-13 02:50:24 DEBU                                                                  b2_conv2_2_lrelu[0][0]           
01-13 02:50:24 DEBU __________________________________________________________________________________________________
01-13 02:50:24 DEBU conv4 (Conv2D)                  (None, 16, 76, 76)   2304        b2_add2[0][0]                    
01-13 02:50:24 DEBU __________________________________________________________________________________________________
01-13 02:50:24 DEBU conv4_bn (BatchNormalization)   (None, 16, 76, 76)   64          conv4[0][0]                      
01-13 02:50:24 DEBU __________________________________________________________________________________________________
01-13 02:50:24 DEBU conv4_lrelu (LeakyReLU)         (None, 16, 76, 76)   0           conv4_bn[0][0]                   
01-13 02:50:24 DEBU __________________________________________________________________________________________________
01-13 02:50:24 DEBU b3_conv1_1 (Conv2D)             (None, 64, 76, 76)   1024        conv4_lrelu[0][0]                
01-13 02:50:24 DEBU __________________________________________________________________________________________________
01-13 02:50:24 DEBU b3_conv1_1_bn (BatchNormalizati (None, 64, 76, 76)   256         b3_conv1_1[0][0]                 
01-13 02:50:24 DEBU __________________________________________________________________________________________________
01-13 02:50:24 DEBU b3_conv1_1_lrelu (LeakyReLU)    (None, 64, 76, 76)   0           b3_conv1_1_bn[0][0]              
01-13 02:50:24 DEBU __________________________________________________________________________________________________
01-13 02:50:24 DEBU b3_conv1_2 (Conv2D)             (None, 16, 76, 76)   9216        b3_conv1_1_lrelu[0][0]           
01-13 02:50:24 DEBU __________________________________________________________________________________________________
01-13 02:50:24 DEBU b3_conv1_2_bn (BatchNormalizati (None, 16, 76, 76)   64          b3_conv1_2[0][0]                 
01-13 02:50:24 DEBU __________________________________________________________________________________________________
01-13 02:50:24 DEBU b3_conv1_2_lrelu (LeakyReLU)    (None, 16, 76, 76)   0           b3_conv1_2_bn[0][0]              
01-13 02:50:24 DEBU __________________________________________________________________________________________________
01-13 02:50:24 DEBU b3_add1 (Add)                   (None, 16, 76, 76)   0           conv4_lrelu[0][0]                
01-13 02:50:24 DEBU                                                                  b3_conv1_2_lrelu[0][0]           
01-13 02:50:24 DEBU __________________________________________________________________________________________________
01-13 02:50:24 DEBU b3_conv2_1 (Conv2D)             (None, 56, 76, 76)   896         b3_add1[0][0]                    
01-13 02:50:24 DEBU __________________________________________________________________________________________________
01-13 02:50:24 DEBU b3_conv2_1_bn (BatchNormalizati (None, 56, 76, 76)   224         b3_conv2_1[0][0]                 
01-13 02:50:24 DEBU __________________________________________________________________________________________________
01-13 02:50:24 DEBU b3_conv2_1_lrelu (LeakyReLU)    (None, 56, 76, 76)   0           b3_conv2_1_bn[0][0]              
01-13 02:50:24 DEBU __________________________________________________________________________________________________
01-13 02:50:24 DEBU b3_conv2_2 (Conv2D)             (None, 16, 76, 76)   8064        b3_conv2_1_lrelu[0][0]           
01-13 02:50:24 DEBU __________________________________________________________________________________________________
01-13 02:50:24 DEBU b3_conv2_2_bn (BatchNormalizati (None, 16, 76, 76)   64          b3_conv2_2[0][0]                 
01-13 02:50:24 DEBU __________________________________________________________________________________________________
01-13 02:50:24 DEBU b3_conv2_2_lrelu (LeakyReLU)    (None, 16, 76, 76)   0           b3_conv2_2_bn[0][0]              
01-13 02:50:24 DEBU __________________________________________________________________________________________________
01-13 02:50:24 DEBU b3_add2 (Add)                   (None, 16, 76, 76)   0           b3_add1[0][0]                    
01-13 02:50:24 DEBU                                                                  b3_conv2_2_lrelu[0][0]           
01-13 02:50:24 DEBU __________________________________________________________________________________________________
01-13 02:50:24 DEBU b3_conv3_1 (Conv2D)             (None, 72, 76, 76)   1152        b3_add2[0][0]                    
01-13 02:50:24 DEBU __________________________________________________________________________________________________
01-13 02:50:24 DEBU b3_conv3_1_bn (BatchNormalizati (None, 72, 76, 76)   288         b3_conv3_1[0][0]                 
01-13 02:50:24 DEBU __________________________________________________________________________________________________
01-13 02:50:24 DEBU b3_conv3_1_lrelu (LeakyReLU)    (None, 72, 76, 76)   0           b3_conv3_1_bn[0][0]              
01-13 02:50:24 DEBU __________________________________________________________________________________________________
01-13 02:50:24 DEBU b3_conv3_2 (Conv2D)             (None, 16, 76, 76)   10368       b3_conv3_1_lrelu[0][0]           
01-13 02:50:24 DEBU __________________________________________________________________________________________________
01-13 02:50:24 DEBU b3_conv3_2_bn (BatchNormalizati (None, 16, 76, 76)   64          b3_conv3_2[0][0]                 
01-13 02:50:24 DEBU __________________________________________________________________________________________________
01-13 02:50:24 DEBU b3_conv3_2_lrelu (LeakyReLU)    (None, 16, 76, 76)   0           b3_conv3_2_bn[0][0]              
01-13 02:50:24 DEBU __________________________________________________________________________________________________
01-13 02:50:24 DEBU b3_add3 (Add)                   (None, 16, 76, 76)   0           b3_add2[0][0]                    
01-13 02:50:24 DEBU                                                                  b3_conv3_2_lrelu[0][0]           
01-13 02:50:24 DEBU __________________________________________________________________________________________________
01-13 02:50:24 DEBU b3_conv4_1 (Conv2D)             (None, 104, 76, 76)  1664        b3_add3[0][0]                    
01-13 02:50:24 DEBU __________________________________________________________________________________________________
01-13 02:50:24 DEBU b3_conv4_1_bn (BatchNormalizati (None, 104, 76, 76)  416         b3_conv4_1[0][0]                 
01-13 02:50:24 DEBU __________________________________________________________________________________________________
01-13 02:50:24 DEBU b3_conv4_1_lrelu (LeakyReLU)    (None, 104, 76, 76)  0           b3_conv4_1_bn[0][0]              
01-13 02:50:24 DEBU __________________________________________________________________________________________________
01-13 02:50:24 DEBU b3_conv4_2 (Conv2D)             (None, 16, 76, 76)   14976       b3_conv4_1_lrelu[0][0]           
01-13 02:50:24 DEBU __________________________________________________________________________________________________
01-13 02:50:24 DEBU b3_conv4_2_bn (BatchNormalizati (None, 16, 76, 76)   64          b3_conv4_2[0][0]                 
01-13 02:50:24 DEBU __________________________________________________________________________________________________
01-13 02:50:24 DEBU b3_conv4_2_lrelu (LeakyReLU)    (None, 16, 76, 76)   0           b3_conv4_2_bn[0][0]              
01-13 02:50:24 DEBU __________________________________________________________________________________________________
01-13 02:50:24 DEBU b3_add4 (Add)                   (None, 16, 76, 76)   0           b3_add3[0][0]                    
01-13 02:50:24 DEBU                                                                  b3_conv4_2_lrelu[0][0]           
01-13 02:50:24 DEBU __________________________________________________________________________________________________
01-13 02:50:24 DEBU b3_conv5_1 (Conv2D)             (None, 104, 76, 76)  1664        b3_add4[0][0]                    
01-13 02:50:24 DEBU __________________________________________________________________________________________________
01-13 02:50:24 DEBU b3_conv5_1_bn (BatchNormalizati (None, 104, 76, 76)  416         b3_conv5_1[0][0]                 
01-13 02:50:24 DEBU __________________________________________________________________________________________________
01-13 02:50:24 DEBU b3_conv5_1_lrelu (LeakyReLU)    (None, 104, 76, 76)  0           b3_conv5_1_bn[0][0]              
01-13 02:50:24 DEBU __________________________________________________________________________________________________
01-13 02:50:24 DEBU b3_conv5_2 (Conv2D)             (None, 16, 76, 76)   14976       b3_conv5_1_lrelu[0][0]           
01-13 02:50:24 DEBU __________________________________________________________________________________________________
01-13 02:50:24 DEBU b3_conv5_2_bn (BatchNormalizati (None, 16, 76, 76)   64          b3_conv5_2[0][0]                 
01-13 02:50:24 DEBU __________________________________________________________________________________________________
01-13 02:50:24 DEBU b3_conv5_2_lrelu (LeakyReLU)    (None, 16, 76, 76)   0           b3_conv5_2_bn[0][0]              
01-13 02:50:24 DEBU __________________________________________________________________________________________________
01-13 02:50:24 DEBU b3_add5 (Add)                   (None, 16, 76, 76)   0           b3_add4[0][0]                    
01-13 02:50:24 DEBU                                                                  b3_conv5_2_lrelu[0][0]           
01-13 02:50:24 DEBU __________________________________________________________________________________________________
01-13 02:50:24 DEBU b3_conv6_1 (Conv2D)             (None, 120, 76, 76)  1920        b3_add5[0][0]                    
01-13 02:50:24 DEBU __________________________________________________________________________________________________
01-13 02:50:24 DEBU b3_conv6_1_bn (BatchNormalizati (None, 120, 76, 76)  480         b3_conv6_1[0][0]                 
01-13 02:50:24 DEBU __________________________________________________________________________________________________
01-13 02:50:24 DEBU b3_conv6_1_lrelu (LeakyReLU)    (None, 120, 76, 76)  0           b3_conv6_1_bn[0][0]              
01-13 02:50:24 DEBU __________________________________________________________________________________________________
01-13 02:50:24 DEBU b3_conv6_2 (Conv2D)             (None, 16, 76, 76)   17280       b3_conv6_1_lrelu[0][0]           
01-13 02:50:24 DEBU __________________________________________________________________________________________________
01-13 02:50:24 DEBU b3_conv6_2_bn (BatchNormalizati (None, 16, 76, 76)   64          b3_conv6_2[0][0]                 
01-13 02:50:24 DEBU __________________________________________________________________________________________________
01-13 02:50:24 DEBU b3_conv6_2_lrelu (LeakyReLU)    (None, 16, 76, 76)   0           b3_conv6_2_bn[0][0]              
01-13 02:50:24 DEBU __________________________________________________________________________________________________
01-13 02:50:24 DEBU b3_add6 (Add)                   (None, 16, 76, 76)   0           b3_add5[0][0]                    
01-13 02:50:24 DEBU                                                                  b3_conv6_2_lrelu[0][0]           
01-13 02:50:24 DEBU __________________________________________________________________________________________________
01-13 02:50:24 DEBU b3_conv7_1 (Conv2D)             (None, 120, 76, 76)  1920        b3_add6[0][0]                    
01-13 02:50:24 DEBU __________________________________________________________________________________________________
01-13 02:50:24 DEBU b3_conv7_1_bn (BatchNormalizati (None, 120, 76, 76)  480         b3_conv7_1[0][0]                 
01-13 02:50:24 DEBU __________________________________________________________________________________________________
01-13 02:50:24 DEBU b3_conv7_1_lrelu (LeakyReLU)    (None, 120, 76, 76)  0           b3_conv7_1_bn[0][0]              
01-13 02:50:24 DEBU __________________________________________________________________________________________________
01-13 02:50:24 DEBU b3_conv7_2 (Conv2D)             (None, 16, 76, 76)   17280       b3_conv7_1_lrelu[0][0]           
01-13 02:50:24 DEBU __________________________________________________________________________________________________
01-13 02:50:24 DEBU b3_conv7_2_bn (BatchNormalizati (None, 16, 76, 76)   64          b3_conv7_2[0][0]                 
01-13 02:50:24 DEBU __________________________________________________________________________________________________
01-13 02:50:24 DEBU b3_conv7_2_lrelu (LeakyReLU)    (None, 16, 76, 76)   0           b3_conv7_2_bn[0][0]              
01-13 02:50:24 DEBU __________________________________________________________________________________________________
01-13 02:50:24 DEBU b3_add7 (Add)                   (None, 16, 76, 76)   0           b3_add6[0][0]                    
01-13 02:50:24 DEBU                                                                  b3_conv7_2_lrelu[0][0]           
01-13 02:50:24 DEBU __________________________________________________________________________________________________
01-13 02:50:24 DEBU b3_conv8_1 (Conv2D)             (None, 120, 76, 76)  1920        b3_add7[0][0]                    
01-13 02:50:24 DEBU __________________________________________________________________________________________________
01-13 02:50:24 DEBU b3_conv8_1_bn (BatchNormalizati (None, 120, 76, 76)  480         b3_conv8_1[0][0]                 
01-13 02:50:24 DEBU __________________________________________________________________________________________________
01-13 02:50:24 DEBU b3_conv8_1_lrelu (LeakyReLU)    (None, 120, 76, 76)  0           b3_conv8_1_bn[0][0]              
01-13 02:50:24 DEBU __________________________________________________________________________________________________
01-13 02:50:24 DEBU b3_conv8_2 (Conv2D)             (None, 16, 76, 76)   17280       b3_conv8_1_lrelu[0][0]           
01-13 02:50:24 DEBU __________________________________________________________________________________________________
01-13 02:50:24 DEBU b3_conv8_2_bn (BatchNormalizati (None, 16, 76, 76)   64          b3_conv8_2[0][0]                 
01-13 02:50:24 DEBU __________________________________________________________________________________________________
01-13 02:50:24 DEBU b3_conv8_2_lrelu (LeakyReLU)    (None, 16, 76, 76)   0           b3_conv8_2_bn[0][0]              
01-13 02:50:24 DEBU __________________________________________________________________________________________________
01-13 02:50:24 DEBU b3_add8 (Add)                   (None, 16, 76, 76)   0           b3_add7[0][0]                    
01-13 02:50:24 DEBU                                                                  b3_conv8_2_lrelu[0][0]           
01-13 02:50:24 DEBU __________________________________________________________________________________________________
01-13 02:50:24 DEBU conv5 (Conv2D)                  (None, 16, 38, 38)   2304        b3_add8[0][0]                    
01-13 02:50:24 DEBU __________________________________________________________________________________________________
01-13 02:50:24 DEBU conv5_bn (BatchNormalization)   (None, 16, 38, 38)   64          conv5[0][0]                      
01-13 02:50:24 DEBU __________________________________________________________________________________________________
01-13 02:50:24 DEBU conv5_lrelu (LeakyReLU)         (None, 16, 38, 38)   0           conv5_bn[0][0]                   
01-13 02:50:24 DEBU __________________________________________________________________________________________________
01-13 02:50:24 DEBU b4_conv1_1 (Conv2D)             (None, 56, 38, 38)   896         conv5_lrelu[0][0]                
01-13 02:50:24 DEBU __________________________________________________________________________________________________
01-13 02:50:24 DEBU b4_conv1_1_bn (BatchNormalizati (None, 56, 38, 38)   224         b4_conv1_1[0][0]                 
01-13 02:50:24 DEBU __________________________________________________________________________________________________
01-13 02:50:24 DEBU b4_conv1_1_lrelu (LeakyReLU)    (None, 56, 38, 38)   0           b4_conv1_1_bn[0][0]              
01-13 02:50:24 DEBU __________________________________________________________________________________________________
01-13 02:50:24 DEBU b4_conv1_2 (Conv2D)             (None, 16, 38, 38)   8064        b4_conv1_1_lrelu[0][0]           
01-13 02:50:24 DEBU __________________________________________________________________________________________________
01-13 02:50:24 DEBU b4_conv1_2_bn (BatchNormalizati (None, 16, 38, 38)   64          b4_conv1_2[0][0]                 
01-13 02:50:24 DEBU __________________________________________________________________________________________________
01-13 02:50:24 DEBU b4_conv1_2_lrelu (LeakyReLU)    (None, 16, 38, 38)   0           b4_conv1_2_bn[0][0]              
01-13 02:50:24 DEBU __________________________________________________________________________________________________
01-13 02:50:24 DEBU b4_add1 (Add)                   (None, 16, 38, 38)   0           conv5_lrelu[0][0]                
01-13 02:50:24 DEBU                                                                  b4_conv1_2_lrelu[0][0]           
01-13 02:50:24 DEBU __________________________________________________________________________________________________
01-13 02:50:24 DEBU b4_conv2_1 (Conv2D)             (None, 56, 38, 38)   896         b4_add1[0][0]                    
01-13 02:50:24 DEBU __________________________________________________________________________________________________
01-13 02:50:24 DEBU b4_conv2_1_bn (BatchNormalizati (None, 56, 38, 38)   224         b4_conv2_1[0][0]                 
01-13 02:50:24 DEBU __________________________________________________________________________________________________
01-13 02:50:24 DEBU b4_conv2_1_lrelu (LeakyReLU)    (None, 56, 38, 38)   0           b4_conv2_1_bn[0][0]              
01-13 02:50:24 DEBU __________________________________________________________________________________________________
01-13 02:50:24 DEBU b4_conv2_2 (Conv2D)             (None, 16, 38, 38)   8064        b4_conv2_1_lrelu[0][0]           
01-13 02:50:24 DEBU __________________________________________________________________________________________________
01-13 02:50:24 DEBU b4_conv2_2_bn (BatchNormalizati (None, 16, 38, 38)   64          b4_conv2_2[0][0]                 
01-13 02:50:24 DEBU __________________________________________________________________________________________________
01-13 02:50:24 DEBU b4_conv2_2_lrelu (LeakyReLU)    (None, 16, 38, 38)   0           b4_conv2_2_bn[0][0]              
01-13 02:50:24 DEBU __________________________________________________________________________________________________
01-13 02:50:24 DEBU b4_add2 (Add)                   (None, 16, 38, 38)   0           b4_add1[0][0]                    
01-13 02:50:24 DEBU                                                                  b4_conv2_2_lrelu[0][0]           
01-13 02:50:24 DEBU __________________________________________________________________________________________________
01-13 02:50:24 DEBU b4_conv3_1 (Conv2D)             (None, 88, 38, 38)   1408        b4_add2[0][0]                    
01-13 02:50:24 DEBU __________________________________________________________________________________________________
01-13 02:50:24 DEBU b4_conv3_1_bn (BatchNormalizati (None, 88, 38, 38)   352         b4_conv3_1[0][0]                 
01-13 02:50:24 DEBU __________________________________________________________________________________________________
01-13 02:50:24 DEBU b4_conv3_1_lrelu (LeakyReLU)    (None, 88, 38, 38)   0           b4_conv3_1_bn[0][0]              
01-13 02:50:24 DEBU __________________________________________________________________________________________________
01-13 02:50:24 DEBU b4_conv3_2 (Conv2D)             (None, 16, 38, 38)   12672       b4_conv3_1_lrelu[0][0]           
01-13 02:50:24 DEBU __________________________________________________________________________________________________
01-13 02:50:24 DEBU b4_conv3_2_bn (BatchNormalizati (None, 16, 38, 38)   64          b4_conv3_2[0][0]                 
01-13 02:50:24 DEBU __________________________________________________________________________________________________
01-13 02:50:24 DEBU b4_conv3_2_lrelu (LeakyReLU)    (None, 16, 38, 38)   0           b4_conv3_2_bn[0][0]              
01-13 02:50:24 DEBU __________________________________________________________________________________________________
01-13 02:50:24 DEBU b4_add3 (Add)                   (None, 16, 38, 38)   0           b4_add2[0][0]                    
01-13 02:50:24 DEBU                                                                  b4_conv3_2_lrelu[0][0]           
01-13 02:50:24 DEBU __________________________________________________________________________________________________
01-13 02:50:24 DEBU b4_conv4_1 (Conv2D)             (None, 128, 38, 38)  2048        b4_add3[0][0]                    
01-13 02:50:24 DEBU __________________________________________________________________________________________________
01-13 02:50:24 DEBU b4_conv4_1_bn (BatchNormalizati (None, 128, 38, 38)  512         b4_conv4_1[0][0]                 
01-13 02:50:24 DEBU __________________________________________________________________________________________________
01-13 02:50:24 DEBU b4_conv4_1_lrelu (LeakyReLU)    (None, 128, 38, 38)  0           b4_conv4_1_bn[0][0]              
01-13 02:50:24 DEBU __________________________________________________________________________________________________
01-13 02:50:24 DEBU b4_conv4_2 (Conv2D)             (None, 16, 38, 38)   18432       b4_conv4_1_lrelu[0][0]           
01-13 02:50:24 DEBU __________________________________________________________________________________________________
01-13 02:50:24 DEBU b4_conv4_2_bn (BatchNormalizati (None, 16, 38, 38)   64          b4_conv4_2[0][0]                 
01-13 02:50:24 DEBU __________________________________________________________________________________________________
01-13 02:50:24 DEBU b4_conv4_2_lrelu (LeakyReLU)    (None, 16, 38, 38)   0           b4_conv4_2_bn[0][0]              
01-13 02:50:24 DEBU __________________________________________________________________________________________________
01-13 02:50:24 DEBU b4_add4 (Add)                   (None, 16, 38, 38)   0           b4_add3[0][0]                    
01-13 02:50:24 DEBU                                                                  b4_conv4_2_lrelu[0][0]           
01-13 02:50:24 DEBU __________________________________________________________________________________________________
01-13 02:50:24 DEBU b4_conv5_1 (Conv2D)             (None, 64, 38, 38)   1024        b4_add4[0][0]                    
01-13 02:50:24 DEBU __________________________________________________________________________________________________
01-13 02:50:24 DEBU b4_conv5_1_bn (BatchNormalizati (None, 64, 38, 38)   256         b4_conv5_1[0][0]                 
01-13 02:50:24 DEBU __________________________________________________________________________________________________
01-13 02:50:24 DEBU b4_conv5_1_lrelu (LeakyReLU)    (None, 64, 38, 38)   0           b4_conv5_1_bn[0][0]              
01-13 02:50:24 DEBU __________________________________________________________________________________________________
01-13 02:50:24 DEBU b4_conv5_2 (Conv2D)             (None, 16, 38, 38)   9216        b4_conv5_1_lrelu[0][0]           
01-13 02:50:24 DEBU __________________________________________________________________________________________________
01-13 02:50:24 DEBU b4_conv5_2_bn (BatchNormalizati (None, 16, 38, 38)   64          b4_conv5_2[0][0]                 
01-13 02:50:24 DEBU __________________________________________________________________________________________________
01-13 02:50:24 DEBU b4_conv5_2_lrelu (LeakyReLU)    (None, 16, 38, 38)   0           b4_conv5_2_bn[0][0]              
01-13 02:50:24 DEBU __________________________________________________________________________________________________
01-13 02:50:24 DEBU b4_add5 (Add)                   (None, 16, 38, 38)   0           b4_add4[0][0]                    
01-13 02:50:24 DEBU                                                                  b4_conv5_2_lrelu[0][0]           
01-13 02:50:24 DEBU __________________________________________________________________________________________________
01-13 02:50:24 DEBU b4_conv6_1 (Conv2D)             (None, 128, 38, 38)  2048        b4_add5[0][0]                    
01-13 02:50:24 DEBU __________________________________________________________________________________________________
01-13 02:50:24 DEBU b4_conv6_1_bn (BatchNormalizati (None, 128, 38, 38)  512         b4_conv6_1[0][0]                 
01-13 02:50:24 DEBU __________________________________________________________________________________________________
01-13 02:50:24 DEBU b4_conv6_1_lrelu (LeakyReLU)    (None, 128, 38, 38)  0           b4_conv6_1_bn[0][0]              
01-13 02:50:24 DEBU __________________________________________________________________________________________________
01-13 02:50:24 DEBU b4_conv6_2 (Conv2D)             (None, 16, 38, 38)   18432       b4_conv6_1_lrelu[0][0]           
01-13 02:50:24 DEBU __________________________________________________________________________________________________
01-13 02:50:24 DEBU b4_conv6_2_bn (BatchNormalizati (None, 16, 38, 38)   64          b4_conv6_2[0][0]                 
01-13 02:50:24 DEBU __________________________________________________________________________________________________
01-13 02:50:24 DEBU b4_conv6_2_lrelu (LeakyReLU)    (None, 16, 38, 38)   0           b4_conv6_2_bn[0][0]              
01-13 02:50:24 DEBU __________________________________________________________________________________________________
01-13 02:50:24 DEBU b4_add6 (Add)                   (None, 16, 38, 38)   0           b4_add5[0][0]                    
01-13 02:50:24 DEBU                                                                  b4_conv6_2_lrelu[0][0]           
01-13 02:50:24 DEBU __________________________________________________________________________________________________
01-13 02:50:24 DEBU b4_conv7_1 (Conv2D)             (None, 152, 38, 38)  2432        b4_add6[0][0]                    
01-13 02:50:24 DEBU __________________________________________________________________________________________________
01-13 02:50:24 DEBU b4_conv7_1_bn (BatchNormalizati (None, 152, 38, 38)  608         b4_conv7_1[0][0]                 
01-13 02:50:24 DEBU __________________________________________________________________________________________________
01-13 02:50:24 DEBU b4_conv7_1_lrelu (LeakyReLU)    (None, 152, 38, 38)  0           b4_conv7_1_bn[0][0]              
01-13 02:50:24 DEBU __________________________________________________________________________________________________
01-13 02:50:24 DEBU b4_conv7_2 (Conv2D)             (None, 16, 38, 38)   21888       b4_conv7_1_lrelu[0][0]           
01-13 02:50:24 DEBU __________________________________________________________________________________________________
01-13 02:50:24 DEBU b4_conv7_2_bn (BatchNormalizati (None, 16, 38, 38)   64          b4_conv7_2[0][0]                 
01-13 02:50:24 DEBU __________________________________________________________________________________________________
01-13 02:50:24 DEBU b4_conv7_2_lrelu (LeakyReLU)    (None, 16, 38, 38)   0           b4_conv7_2_bn[0][0]              
01-13 02:50:24 DEBU __________________________________________________________________________________________________
01-13 02:50:24 DEBU b4_add7 (Add)                   (None, 16, 38, 38)   0           b4_add6[0][0]                    
01-13 02:50:24 DEBU                                                                  b4_conv7_2_lrelu[0][0]           
01-13 02:50:24 DEBU __________________________________________________________________________________________________
01-13 02:50:24 DEBU b4_conv8_1 (Conv2D)             (None, 128, 38, 38)  2048        b4_add7[0][0]                    
01-13 02:50:24 DEBU __________________________________________________________________________________________________
01-13 02:50:24 DEBU b4_conv8_1_bn (BatchNormalizati (None, 128, 38, 38)  512         b4_conv8_1[0][0]                 
01-13 02:50:24 DEBU __________________________________________________________________________________________________
01-13 02:50:24 DEBU b4_conv8_1_lrelu (LeakyReLU)    (None, 128, 38, 38)  0           b4_conv8_1_bn[0][0]              
01-13 02:50:24 DEBU __________________________________________________________________________________________________
01-13 02:50:24 DEBU b4_conv8_2 (Conv2D)             (None, 16, 38, 38)   18432       b4_conv8_1_lrelu[0][0]           
01-13 02:50:24 DEBU __________________________________________________________________________________________________
01-13 02:50:24 DEBU b4_conv8_2_bn (BatchNormalizati (None, 16, 38, 38)   64          b4_conv8_2[0][0]                 
01-13 02:50:24 DEBU __________________________________________________________________________________________________
01-13 02:50:24 DEBU b4_conv8_2_lrelu (LeakyReLU)    (None, 16, 38, 38)   0           b4_conv8_2_bn[0][0]              
01-13 02:50:24 DEBU __________________________________________________________________________________________________
01-13 02:50:24 DEBU b4_add8 (Add)                   (None, 16, 38, 38)   0           b4_add7[0][0]                    
01-13 02:50:24 DEBU                                                                  b4_conv8_2_lrelu[0][0]           
01-13 02:50:24 DEBU __________________________________________________________________________________________________
01-13 02:50:24 DEBU conv6 (Conv2D)                  (None, 16, 19, 19)   2304        b4_add8[0][0]                    
01-13 02:50:24 DEBU __________________________________________________________________________________________________
01-13 02:50:24 DEBU conv6_bn (BatchNormalization)   (None, 16, 19, 19)   64          conv6[0][0]                      
01-13 02:50:24 DEBU __________________________________________________________________________________________________
01-13 02:50:24 DEBU conv6_lrelu (LeakyReLU)         (None, 16, 19, 19)   0           conv6_bn[0][0]                   
01-13 02:50:24 DEBU __________________________________________________________________________________________________
01-13 02:50:24 DEBU b5_conv1_1 (Conv2D)             (None, 32, 19, 19)   512         conv6_lrelu[0][0]                
01-13 02:50:24 DEBU __________________________________________________________________________________________________
01-13 02:50:24 DEBU b5_conv1_1_bn (BatchNormalizati (None, 32, 19, 19)   128         b5_conv1_1[0][0]                 
01-13 02:50:24 DEBU __________________________________________________________________________________________________
01-13 02:50:24 DEBU b5_conv1_1_lrelu (LeakyReLU)    (None, 32, 19, 19)   0           b5_conv1_1_bn[0][0]              
01-13 02:50:24 DEBU __________________________________________________________________________________________________
01-13 02:50:24 DEBU b5_conv1_2 (Conv2D)             (None, 16, 19, 19)   4608        b5_conv1_1_lrelu[0][0]           
01-13 02:50:24 DEBU __________________________________________________________________________________________________
01-13 02:50:24 DEBU b5_conv1_2_bn (BatchNormalizati (None, 16, 19, 19)   64          b5_conv1_2[0][0]                 
01-13 02:50:24 DEBU __________________________________________________________________________________________________
01-13 02:50:24 DEBU b5_conv1_2_lrelu (LeakyReLU)    (None, 16, 19, 19)   0           b5_conv1_2_bn[0][0]              
01-13 02:50:24 DEBU __________________________________________________________________________________________________
01-13 02:50:24 DEBU b5_add1 (Add)                   (None, 16, 19, 19)   0           conv6_lrelu[0][0]                
01-13 02:50:24 DEBU                                                                  b5_conv1_2_lrelu[0][0]           
01-13 02:50:24 DEBU __________________________________________________________________________________________________
01-13 02:50:24 DEBU b5_conv2_1 (Conv2D)             (None, 128, 19, 19)  2048        b5_add1[0][0]                    
01-13 02:50:24 DEBU __________________________________________________________________________________________________
01-13 02:50:24 DEBU b5_conv2_1_bn (BatchNormalizati (None, 128, 19, 19)  512         b5_conv2_1[0][0]                 
01-13 02:50:24 DEBU __________________________________________________________________________________________________
01-13 02:50:24 DEBU b5_conv2_1_lrelu (LeakyReLU)    (None, 128, 19, 19)  0           b5_conv2_1_bn[0][0]              
01-13 02:50:24 DEBU __________________________________________________________________________________________________
01-13 02:50:24 DEBU b5_conv2_2 (Conv2D)             (None, 16, 19, 19)   18432       b5_conv2_1_lrelu[0][0]           
01-13 02:50:24 DEBU __________________________________________________________________________________________________
01-13 02:50:24 DEBU b5_conv2_2_bn (BatchNormalizati (None, 16, 19, 19)   64          b5_conv2_2[0][0]                 
01-13 02:50:24 DEBU __________________________________________________________________________________________________
01-13 02:50:24 DEBU b5_conv2_2_lrelu (LeakyReLU)    (None, 16, 19, 19)   0           b5_conv2_2_bn[0][0]              
01-13 02:50:24 DEBU __________________________________________________________________________________________________
01-13 02:50:24 DEBU b5_add2 (Add)                   (None, 16, 19, 19)   0           b5_add1[0][0]                    
01-13 02:50:24 DEBU                                                                  b5_conv2_2_lrelu[0][0]           
01-13 02:50:24 DEBU __________________________________________________________________________________________________
01-13 02:50:24 DEBU b5_conv3_1 (Conv2D)             (None, 120, 19, 19)  1920        b5_add2[0][0]                    
01-13 02:50:24 DEBU __________________________________________________________________________________________________
01-13 02:50:24 DEBU b5_conv3_1_bn (BatchNormalizati (None, 120, 19, 19)  480         b5_conv3_1[0][0]                 
01-13 02:50:24 DEBU __________________________________________________________________________________________________
01-13 02:50:24 DEBU b5_conv3_1_lrelu (LeakyReLU)    (None, 120, 19, 19)  0           b5_conv3_1_bn[0][0]              
01-13 02:50:24 DEBU __________________________________________________________________________________________________
01-13 02:50:24 DEBU b5_conv3_2 (Conv2D)             (None, 16, 19, 19)   17280       b5_conv3_1_lrelu[0][0]           
01-13 02:50:24 DEBU __________________________________________________________________________________________________
01-13 02:50:24 DEBU b5_conv3_2_bn (BatchNormalizati (None, 16, 19, 19)   64          b5_conv3_2[0][0]                 
01-13 02:50:24 DEBU __________________________________________________________________________________________________
01-13 02:50:24 DEBU b5_conv3_2_lrelu (LeakyReLU)    (None, 16, 19, 19)   0           b5_conv3_2_bn[0][0]              
01-13 02:50:24 DEBU __________________________________________________________________________________________________
01-13 02:50:24 DEBU b5_add3 (Add)                   (None, 16, 19, 19)   0           b5_add2[0][0]                    
01-13 02:50:24 DEBU                                                                  b5_conv3_2_lrelu[0][0]           
01-13 02:50:24 DEBU __________________________________________________________________________________________________
01-13 02:50:24 DEBU b5_conv4_1 (Conv2D)             (None, 168, 19, 19)  2688        b5_add3[0][0]                    
01-13 02:50:24 DEBU __________________________________________________________________________________________________
01-13 02:50:24 DEBU b5_conv4_1_bn (BatchNormalizati (None, 168, 19, 19)  672         b5_conv4_1[0][0]                 
01-13 02:50:24 DEBU __________________________________________________________________________________________________
01-13 02:50:24 DEBU b5_conv4_1_lrelu (LeakyReLU)    (None, 168, 19, 19)  0           b5_conv4_1_bn[0][0]              
01-13 02:50:24 DEBU __________________________________________________________________________________________________
01-13 02:50:24 DEBU b5_conv4_2 (Conv2D)             (None, 16, 19, 19)   24192       b5_conv4_1_lrelu[0][0]           
01-13 02:50:24 DEBU __________________________________________________________________________________________________
01-13 02:50:24 DEBU b5_conv4_2_bn (BatchNormalizati (None, 16, 19, 19)   64          b5_conv4_2[0][0]                 
01-13 02:50:24 DEBU __________________________________________________________________________________________________
01-13 02:50:24 DEBU b5_conv4_2_lrelu (LeakyReLU)    (None, 16, 19, 19)   0           b5_conv4_2_bn[0][0]              
01-13 02:50:24 DEBU __________________________________________________________________________________________________
01-13 02:50:24 DEBU b5_add4 (Add)                   (None, 16, 19, 19)   0           b5_add3[0][0]                    
01-13 02:50:24 DEBU                                                                  b5_conv4_2_lrelu[0][0]           
01-13 02:50:24 DEBU __________________________________________________________________________________________________
01-13 02:50:24 DEBU yolo_spp_pool_1 (MaxPooling2D)  (None, 16, 19, 19)   0           b5_add4[0][0]                    
01-13 02:50:24 DEBU __________________________________________________________________________________________________
01-13 02:50:24 DEBU yolo_spp_pool_2 (MaxPooling2D)  (None, 16, 19, 19)   0           b5_add4[0][0]                    
01-13 02:50:24 DEBU __________________________________________________________________________________________________
01-13 02:50:24 DEBU yolo_spp_pool_3 (MaxPooling2D)  (None, 16, 19, 19)   0           b5_add4[0][0]                    
01-13 02:50:24 DEBU __________________________________________________________________________________________________
01-13 02:50:24 DEBU yolo_spp_concat (Concatenate)   (None, 64, 19, 19)   0           yolo_spp_pool_1[0][0]            
01-13 02:50:24 DEBU                                                                  yolo_spp_pool_2[0][0]            
01-13 02:50:24 DEBU                                                                  yolo_spp_pool_3[0][0]            
01-13 02:50:24 DEBU                                                                  b5_add4[0][0]                    
01-13 02:50:24 DEBU __________________________________________________________________________________________________
01-13 02:50:24 DEBU yolo_spp_conv (Conv2D)          (None, 224, 19, 19)  14336       yolo_spp_concat[0][0]            
01-13 02:50:24 DEBU __________________________________________________________________________________________________
01-13 02:50:24 DEBU yolo_spp_conv_bn (BatchNormaliz (None, 224, 19, 19)  896         yolo_spp_conv[0][0]              
01-13 02:50:24 DEBU __________________________________________________________________________________________________
01-13 02:50:24 DEBU yolo_spp_conv_lrelu (LeakyReLU) (None, 224, 19, 19)  0           yolo_spp_conv_bn[0][0]           
01-13 02:50:24 DEBU __________________________________________________________________________________________________
01-13 02:50:24 DEBU yolo_conv1_1 (Conv2D)           (None, 208, 19, 19)  46592       yolo_spp_conv_lrelu[0][0]        
01-13 02:50:24 DEBU __________________________________________________________________________________________________
01-13 02:50:24 DEBU yolo_conv1_1_bn (BatchNormaliza (None, 208, 19, 19)  832         yolo_conv1_1[0][0]               
01-13 02:50:24 DEBU __________________________________________________________________________________________________
01-13 02:50:24 DEBU yolo_conv1_1_lrelu (LeakyReLU)  (None, 208, 19, 19)  0           yolo_conv1_1_bn[0][0]            
01-13 02:50:24 DEBU __________________________________________________________________________________________________
01-13 02:50:24 DEBU yolo_conv1_2 (Conv2D)           (None, 272, 19, 19)  509184      yolo_conv1_1_lrelu[0][0]         
01-13 02:50:24 DEBU __________________________________________________________________________________________________
01-13 02:50:24 DEBU yolo_conv1_2_bn (BatchNormaliza (None, 272, 19, 19)  1088        yolo_conv1_2[0][0]               
01-13 02:50:24 DEBU __________________________________________________________________________________________________
01-13 02:50:24 DEBU yolo_conv1_2_lrelu (LeakyReLU)  (None, 272, 19, 19)  0           yolo_conv1_2_bn[0][0]            
01-13 02:50:24 DEBU __________________________________________________________________________________________________
01-13 02:50:24 DEBU yolo_conv1_3 (Conv2D)           (None, 136, 19, 19)  36992       yolo_conv1_2_lrelu[0][0]         
01-13 02:50:24 DEBU __________________________________________________________________________________________________
01-13 02:50:24 DEBU yolo_conv1_3_bn (BatchNormaliza (None, 136, 19, 19)  544         yolo_conv1_3[0][0]               
01-13 02:50:24 DEBU __________________________________________________________________________________________________
01-13 02:50:24 DEBU yolo_conv1_3_lrelu (LeakyReLU)  (None, 136, 19, 19)  0           yolo_conv1_3_bn[0][0]            
01-13 02:50:24 DEBU __________________________________________________________________________________________________
01-13 02:50:24 DEBU yolo_conv1_4 (Conv2D)           (None, 272, 19, 19)  332928      yolo_conv1_3_lrelu[0][0]         
01-13 02:50:24 DEBU __________________________________________________________________________________________________
01-13 02:50:24 DEBU yolo_conv1_4_bn (BatchNormaliza (None, 272, 19, 19)  1088        yolo_conv1_4[0][0]               
01-13 02:50:24 DEBU __________________________________________________________________________________________________
01-13 02:50:24 DEBU yolo_conv1_4_lrelu (LeakyReLU)  (None, 272, 19, 19)  0           yolo_conv1_4_bn[0][0]            
01-13 02:50:24 DEBU __________________________________________________________________________________________________
01-13 02:50:24 DEBU yolo_conv1_5 (Conv2D)           (None, 200, 19, 19)  54400       yolo_conv1_4_lrelu[0][0]         
01-13 02:50:24 DEBU __________________________________________________________________________________________________
01-13 02:50:24 DEBU yolo_conv1_5_bn (BatchNormaliza (None, 200, 19, 19)  800         yolo_conv1_5[0][0]               
01-13 02:50:24 DEBU __________________________________________________________________________________________________
01-13 02:50:24 DEBU yolo_conv1_5_lrelu (LeakyReLU)  (None, 200, 19, 19)  0           yolo_conv1_5_bn[0][0]            
01-13 02:50:24 DEBU __________________________________________________________________________________________________
01-13 02:50:24 DEBU yolo_conv2 (Conv2D)             (None, 200, 19, 19)  40000       yolo_conv1_5_lrelu[0][0]         
01-13 02:50:24 DEBU __________________________________________________________________________________________________
01-13 02:50:24 DEBU yolo_conv2_bn (BatchNormalizati (None, 200, 19, 19)  800         yolo_conv2[0][0]                 
01-13 02:50:24 DEBU __________________________________________________________________________________________________
01-13 02:50:24 DEBU yolo_conv2_lrelu (LeakyReLU)    (None, 200, 19, 19)  0           yolo_conv2_bn[0][0]              
01-13 02:50:24 DEBU __________________________________________________________________________________________________
01-13 02:50:24 DEBU upsample0 (UpSampling2D)        (None, 200, 38, 38)  0           yolo_conv2_lrelu[0][0]           
01-13 02:50:24 DEBU __________________________________________________________________________________________________
01-13 02:50:24 DEBU concatenate_3 (Concatenate)     (None, 216, 38, 38)  0           upsample0[0][0]                  
01-13 02:50:24 DEBU                                                                  b4_add7[0][0]                    
01-13 02:50:24 DEBU __________________________________________________________________________________________________
01-13 02:50:24 DEBU yolo_conv3_1 (Conv2D)           (None, 224, 38, 38)  48384       concatenate_3[0][0]              
01-13 02:50:24 DEBU __________________________________________________________________________________________________
01-13 02:50:24 DEBU yolo_conv3_1_bn (BatchNormaliza (None, 224, 38, 38)  896         yolo_conv3_1[0][0]               
01-13 02:50:24 DEBU __________________________________________________________________________________________________
01-13 02:50:24 DEBU yolo_conv3_1_lrelu (LeakyReLU)  (None, 224, 38, 38)  0           yolo_conv3_1_bn[0][0]            
01-13 02:50:24 DEBU __________________________________________________________________________________________________
01-13 02:50:24 DEBU yolo_conv3_2 (Conv2D)           (None, 320, 38, 38)  645120      yolo_conv3_1_lrelu[0][0]         
01-13 02:50:24 DEBU __________________________________________________________________________________________________
01-13 02:50:24 DEBU yolo_conv3_2_bn (BatchNormaliza (None, 320, 38, 38)  1280        yolo_conv3_2[0][0]               
01-13 02:50:24 DEBU __________________________________________________________________________________________________
01-13 02:50:24 DEBU yolo_conv3_2_lrelu (LeakyReLU)  (None, 320, 38, 38)  0           yolo_conv3_2_bn[0][0]            
01-13 02:50:24 DEBU __________________________________________________________________________________________________
01-13 02:50:24 DEBU yolo_conv3_3 (Conv2D)           (None, 184, 38, 38)  58880       yolo_conv3_2_lrelu[0][0]         
01-13 02:50:24 DEBU __________________________________________________________________________________________________
01-13 02:50:24 DEBU yolo_conv3_3_bn (BatchNormaliza (None, 184, 38, 38)  736         yolo_conv3_3[0][0]               
01-13 02:50:24 DEBU __________________________________________________________________________________________________
01-13 02:50:24 DEBU yolo_conv3_3_lrelu (LeakyReLU)  (None, 184, 38, 38)  0           yolo_conv3_3_bn[0][0]            
01-13 02:50:24 DEBU __________________________________________________________________________________________________
01-13 02:50:24 DEBU yolo_conv3_4 (Conv2D)           (None, 168, 38, 38)  278208      yolo_conv3_3_lrelu[0][0]         
01-13 02:50:24 DEBU __________________________________________________________________________________________________
01-13 02:50:24 DEBU yolo_conv3_4_bn (BatchNormaliza (None, 168, 38, 38)  672         yolo_conv3_4[0][0]               
01-13 02:50:24 DEBU __________________________________________________________________________________________________
01-13 02:50:24 DEBU yolo_conv3_4_lrelu (LeakyReLU)  (None, 168, 38, 38)  0           yolo_conv3_4_bn[0][0]            
01-13 02:50:24 DEBU __________________________________________________________________________________________________
01-13 02:50:24 DEBU yolo_conv3_5 (Conv2D)           (None, 224, 38, 38)  37632       yolo_conv3_4_lrelu[0][0]         
01-13 02:50:24 DEBU __________________________________________________________________________________________________
01-13 02:50:24 DEBU yolo_conv3_5_bn (BatchNormaliza (None, 224, 38, 38)  896         yolo_conv3_5[0][0]               
01-13 02:50:24 DEBU __________________________________________________________________________________________________
01-13 02:50:24 DEBU yolo_conv3_5_lrelu (LeakyReLU)  (None, 224, 38, 38)  0           yolo_conv3_5_bn[0][0]            
01-13 02:50:24 DEBU __________________________________________________________________________________________________
01-13 02:50:24 DEBU yolo_conv4 (Conv2D)             (None, 120, 38, 38)  26880       yolo_conv3_5_lrelu[0][0]         
01-13 02:50:24 DEBU __________________________________________________________________________________________________
01-13 02:50:24 DEBU yolo_conv4_bn (BatchNormalizati (None, 120, 38, 38)  480         yolo_conv4[0][0]                 
01-13 02:50:24 DEBU __________________________________________________________________________________________________
01-13 02:50:24 DEBU yolo_conv4_lrelu (LeakyReLU)    (None, 120, 38, 38)  0           yolo_conv4_bn[0][0]              
01-13 02:50:24 DEBU __________________________________________________________________________________________________
01-13 02:50:24 DEBU upsample1 (UpSampling2D)        (None, 120, 76, 76)  0           yolo_conv4_lrelu[0][0]           
01-13 02:50:24 DEBU __________________________________________________________________________________________________
01-13 02:50:24 DEBU concatenate_4 (Concatenate)     (None, 136, 76, 76)  0           upsample1[0][0]                  
01-13 02:50:24 DEBU                                                                  b3_add7[0][0]                    
01-13 02:50:24 DEBU __________________________________________________________________________________________________
01-13 02:50:24 DEBU yolo_conv5_1 (Conv2D)           (None, 128, 76, 76)  17408       concatenate_4[0][0]              
01-13 02:50:24 DEBU __________________________________________________________________________________________________
01-13 02:50:24 DEBU yolo_conv5_1_bn (BatchNormaliza (None, 128, 76, 76)  512         yolo_conv5_1[0][0]               
01-13 02:50:24 DEBU __________________________________________________________________________________________________
01-13 02:50:24 DEBU yolo_conv5_1_lrelu (LeakyReLU)  (None, 128, 76, 76)  0           yolo_conv5_1_bn[0][0]            
01-13 02:50:24 DEBU __________________________________________________________________________________________________
01-13 02:50:24 DEBU yolo_conv5_2 (Conv2D)           (None, 192, 76, 76)  221184      yolo_conv5_1_lrelu[0][0]         
01-13 02:50:24 DEBU __________________________________________________________________________________________________
01-13 02:50:24 DEBU yolo_conv5_2_bn (BatchNormaliza (None, 192, 76, 76)  768         yolo_conv5_2[0][0]               
01-13 02:50:24 DEBU __________________________________________________________________________________________________
01-13 02:50:24 DEBU yolo_conv5_2_lrelu (LeakyReLU)  (None, 192, 76, 76)  0           yolo_conv5_2_bn[0][0]            
01-13 02:50:24 DEBU __________________________________________________________________________________________________
01-13 02:50:41 DEBU yolo_conv5_3 (Conv2D)           (None, 128, 76, 76)  24576       yolo_conv5_2_lrelu[0][0]         
01-13 02:50:41 DEBU __________________________________________________________________________________________________
01-13 02:50:41 DEBU yolo_conv5_3_bn (BatchNormaliza (None, 128, 76, 76)  512         yolo_conv5_3[0][0]               
01-13 02:50:41 DEBU __________________________________________________________________________________________________
01-13 02:50:41 DEBU yolo_conv5_3_lrelu (LeakyReLU)  (None, 128, 76, 76)  0           yolo_conv5_3_bn[0][0]            
01-13 02:50:41 DEBU __________________________________________________________________________________________________
01-13 02:50:41 DEBU yolo_conv5_4 (Conv2D)           (None, 144, 76, 76)  165888      yolo_conv5_3_lrelu[0][0]         
01-13 02:50:41 DEBU __________________________________________________________________________________________________
01-13 02:50:41 DEBU yolo_conv5_4_bn (BatchNormaliza (None, 144, 76, 76)  576         yolo_conv5_4[0][0]               
01-13 02:50:41 DEBU __________________________________________________________________________________________________
01-13 02:50:41 DEBU yolo_conv5_4_lrelu (LeakyReLU)  (None, 144, 76, 76)  0           yolo_conv5_4_bn[0][0]            
01-13 02:50:41 DEBU __________________________________________________________________________________________________
01-13 02:50:41 DEBU yolo_conv5_5 (Conv2D)           (None, 128, 76, 76)  18432       yolo_conv5_4_lrelu[0][0]         
01-13 02:50:41 DEBU __________________________________________________________________________________________________
01-13 02:50:41 DEBU yolo_conv5_5_bn (BatchNormaliza (None, 128, 76, 76)  512         yolo_conv5_5[0][0]               
01-13 02:50:41 DEBU __________________________________________________________________________________________________
01-13 02:50:41 DEBU yolo_conv5_5_lrelu (LeakyReLU)  (None, 128, 76, 76)  0           yolo_conv5_5_bn[0][0]            
01-13 02:50:41 DEBU __________________________________________________________________________________________________
01-13 02:50:41 DEBU yolo_conv1_6 (Conv2D)           (None, 136, 19, 19)  244800      yolo_conv1_5_lrelu[0][0]         
01-13 02:50:41 DEBU __________________________________________________________________________________________________
01-13 02:50:41 DEBU yolo_conv3_6 (Conv2D)           (None, 184, 38, 38)  370944      yolo_conv3_5_lrelu[0][0]         
01-13 02:50:41 DEBU __________________________________________________________________________________________________
01-13 02:50:41 DEBU yolo_conv5_6 (Conv2D)           (None, 224, 76, 76)  258048      yolo_conv5_5_lrelu[0][0]         
01-13 02:50:41 DEBU __________________________________________________________________________________________________
01-13 02:50:41 DEBU yolo_conv1_6_bn (BatchNormaliza (None, 136, 19, 19)  544         yolo_conv1_6[0][0]               
01-13 02:50:41 DEBU __________________________________________________________________________________________________
01-13 02:50:41 DEBU yolo_conv3_6_bn (BatchNormaliza (None, 184, 38, 38)  736         yolo_conv3_6[0][0]               
01-13 02:50:41 DEBU __________________________________________________________________________________________________
01-13 02:50:41 DEBU yolo_conv5_6_bn (BatchNormaliza (None, 224, 76, 76)  896         yolo_conv5_6[0][0]               
01-13 02:50:41 DEBU __________________________________________________________________________________________________
01-13 02:50:41 DEBU yolo_conv1_6_lrelu (LeakyReLU)  (None, 136, 19, 19)  0           yolo_conv1_6_bn[0][0]            
01-13 02:50:41 DEBU __________________________________________________________________________________________________
01-13 02:50:41 DEBU yolo_conv3_6_lrelu (LeakyReLU)  (None, 184, 38, 38)  0           yolo_conv3_6_bn[0][0]            
01-13 02:50:41 DEBU __________________________________________________________________________________________________
01-13 02:50:41 DEBU yolo_conv5_6_lrelu (LeakyReLU)  (None, 224, 76, 76)  0           yolo_conv5_6_bn[0][0]            
01-13 02:50:41 DEBU __________________________________________________________________________________________________
01-13 02:50:41 DEBU conv_big_object (Conv2D)        (None, 21, 19, 19)   2877        yolo_conv1_6_lrelu[0][0]         
01-13 02:50:41 DEBU __________________________________________________________________________________________________
01-13 02:50:41 DEBU conv_mid_object (Conv2D)        (None, 21, 38, 38)   3885        yolo_conv3_6_lrelu[0][0]         
01-13 02:50:41 DEBU __________________________________________________________________________________________________
01-13 02:50:41 DEBU conv_sm_object (Conv2D)         (None, 21, 76, 76)   4725        yolo_conv5_6_lrelu[0][0]         
01-13 02:50:41 DEBU __________________________________________________________________________________________________
01-13 02:50:41 DEBU bg_permute (Permute)            (None, 19, 19, 21)   0           conv_big_object[0][0]            
01-13 02:50:41 DEBU __________________________________________________________________________________________________
01-13 02:50:41 DEBU md_permute (Permute)            (None, 38, 38, 21)   0           conv_mid_object[0][0]            
01-13 02:50:41 DEBU __________________________________________________________________________________________________
01-13 02:50:41 DEBU sm_permute (Permute)            (None, 76, 76, 21)   0           conv_sm_object[0][0]             
01-13 02:50:41 DEBU __________________________________________________________________________________________________
01-13 02:50:41 DEBU bg_reshape (Reshape)            (None, 1083, 7)      0           bg_permute[0][0]                 
01-13 02:50:41 DEBU __________________________________________________________________________________________________
01-13 02:50:41 DEBU md_reshape (Reshape)            (None, 4332, 7)      0           md_permute[0][0]                 
01-13 02:50:41 DEBU __________________________________________________________________________________________________
01-13 02:50:41 DEBU sm_reshape (Reshape)            (None, 17328, 7)     0           sm_permute[0][0]                 
01-13 02:50:41 DEBU __________________________________________________________________________________________________
01-13 02:50:41 DEBU bg_anchor (YOLOAnchorBox)       (None, 1083, 6)      0           conv_big_object[0][0]            
01-13 02:50:41 DEBU __________________________________________________________________________________________________
01-13 02:50:41 DEBU bg_bbox_processor (BBoxPostProc (None, 1083, 7)      0           bg_reshape[0][0]                 
01-13 02:50:41 DEBU __________________________________________________________________________________________________
01-13 02:50:41 DEBU md_anchor (YOLOAnchorBox)       (None, 4332, 6)      0           conv_mid_object[0][0]            
01-13 02:50:41 DEBU __________________________________________________________________________________________________
01-13 02:50:41 DEBU md_bbox_processor (BBoxPostProc (None, 4332, 7)      0           md_reshape[0][0]                 
01-13 02:50:41 DEBU __________________________________________________________________________________________________
01-13 02:50:41 DEBU sm_anchor (YOLOAnchorBox)       (None, 17328, 6)     0           conv_sm_object[0][0]             
01-13 02:50:41 DEBU __________________________________________________________________________________________________
01-13 02:50:41 DEBU sm_bbox_processor (BBoxPostProc (None, 17328, 7)     0           sm_reshape[0][0]                 
01-13 02:50:41 DEBU __________________________________________________________________________________________________
01-13 02:50:41 DEBU encoded_bg (Concatenate)        (None, 1083, 13)     0           bg_anchor[0][0]                  
01-13 02:50:41 DEBU                                                                  bg_bbox_processor[0][0]          
01-13 02:50:41 DEBU __________________________________________________________________________________________________
01-13 02:50:41 DEBU encoded_md (Concatenate)        (None, 4332, 13)     0           md_anchor[0][0]                  
01-13 02:50:41 DEBU                                                                  md_bbox_processor[0][0]          
01-13 02:50:41 DEBU __________________________________________________________________________________________________
01-13 02:50:41 DEBU encoded_sm (Concatenate)        (None, 17328, 13)    0           sm_anchor[0][0]                  
01-13 02:50:41 DEBU                                                                  sm_bbox_processor[0][0]          
01-13 02:50:41 DEBU __________________________________________________________________________________________________
01-13 02:50:41 DEBU encoded_detections (Concatenate (None, 22743, 13)    0           encoded_bg[0][0]                 
01-13 02:50:41 DEBU                                                                  encoded_md[0][0]                 
01-13 02:50:41 DEBU                                                                  encoded_sm[0][0]                 
01-13 02:50:41 DEBU ==================================================================================================
…
