…
01-10 02:42:21 INFO ['classification', 'inference', '-e', '/workspace/tasks/classification/specs/classification_retrain_spec.cfg', '-k', 'nvidia_tlt', '-m', '/workspace/tasks/classification/output_retrain/weights/resnet_010.tlt', '-d', '/workspace/tasks/data/mask/test/mask', '-b', '16', '-cm', '/workspace/tasks/classification/output_retrain/classmap.json', '--gpus', '1', '--gpu_index', '0']
01-10 02:42:21 INFO ----------------
01-10 02:42:29 DEBU __________________________________________________________________________________________________
01-10 02:42:29 DEBU Layer (type)                    Output Shape         Param #     Connected to                     
01-10 02:42:29 DEBU ==================================================================================================
01-10 02:42:29 DEBU input_1 (InputLayer)            (None, 3, 224, 224)  0                                            
01-10 02:42:29 DEBU __________________________________________________________________________________________________
01-10 02:42:29 DEBU conv1 (Conv2D)                  (None, 40, 112, 112) 5880        input_1[0][0]                    
01-10 02:42:29 DEBU __________________________________________________________________________________________________
01-10 02:42:29 DEBU bn_conv1 (BatchNormalization)   (None, 40, 112, 112) 160         conv1[0][0]                      
01-10 02:42:29 DEBU __________________________________________________________________________________________________
01-10 02:42:29 DEBU activation_1 (Activation)       (None, 40, 112, 112) 0           bn_conv1[0][0]                   
01-10 02:42:29 DEBU __________________________________________________________________________________________________
01-10 02:42:29 DEBU block_1a_conv_1 (Conv2D)        (None, 64, 56, 56)   23040       activation_1[0][0]               
01-10 02:42:29 DEBU __________________________________________________________________________________________________
01-10 02:42:29 DEBU block_1a_bn_1 (BatchNormalizati (None, 64, 56, 56)   256         block_1a_conv_1[0][0]            
01-10 02:42:29 DEBU __________________________________________________________________________________________________
01-10 02:42:29 DEBU block_1a_relu_1 (Activation)    (None, 64, 56, 56)   0           block_1a_bn_1[0][0]              
01-10 02:42:29 DEBU __________________________________________________________________________________________________
01-10 02:42:29 DEBU block_1a_conv_2 (Conv2D)        (None, 64, 56, 56)   36864       block_1a_relu_1[0][0]            
01-10 02:42:29 DEBU __________________________________________________________________________________________________
01-10 02:42:29 DEBU block_1a_conv_shortcut (Conv2D) (None, 64, 56, 56)   2560        activation_1[0][0]               
01-10 02:42:29 DEBU __________________________________________________________________________________________________
01-10 02:42:29 DEBU block_1a_bn_2 (BatchNormalizati (None, 64, 56, 56)   256         block_1a_conv_2[0][0]            
01-10 02:42:29 DEBU __________________________________________________________________________________________________
01-10 02:42:29 DEBU block_1a_bn_shortcut (BatchNorm (None, 64, 56, 56)   256         block_1a_conv_shortcut[0][0]     
01-10 02:42:29 DEBU __________________________________________________________________________________________________
01-10 02:42:29 DEBU add_1 (Add)                     (None, 64, 56, 56)   0           block_1a_bn_2[0][0]              
01-10 02:42:29 DEBU                                                                  block_1a_bn_shortcut[0][0]       
01-10 02:42:29 DEBU __________________________________________________________________________________________________
01-10 02:42:29 DEBU block_1a_relu (Activation)      (None, 64, 56, 56)   0           add_1[0][0]                      
01-10 02:42:29 DEBU __________________________________________________________________________________________________
01-10 02:42:29 DEBU block_2a_conv_1 (Conv2D)        (None, 128, 28, 28)  73728       block_1a_relu[0][0]              
01-10 02:42:29 DEBU __________________________________________________________________________________________________
01-10 02:42:29 DEBU block_2a_bn_1 (BatchNormalizati (None, 128, 28, 28)  512         block_2a_conv_1[0][0]            
01-10 02:42:29 DEBU __________________________________________________________________________________________________
01-10 02:42:29 DEBU block_2a_relu_1 (Activation)    (None, 128, 28, 28)  0           block_2a_bn_1[0][0]              
01-10 02:42:29 DEBU __________________________________________________________________________________________________
01-10 02:42:29 DEBU block_2a_conv_2 (Conv2D)        (None, 128, 28, 28)  147456      block_2a_relu_1[0][0]            
01-10 02:42:29 DEBU __________________________________________________________________________________________________
01-10 02:42:29 DEBU block_2a_conv_shortcut (Conv2D) (None, 128, 28, 28)  8192        block_1a_relu[0][0]              
01-10 02:42:29 DEBU __________________________________________________________________________________________________
01-10 02:42:29 DEBU block_2a_bn_2 (BatchNormalizati (None, 128, 28, 28)  512         block_2a_conv_2[0][0]            
01-10 02:42:29 DEBU __________________________________________________________________________________________________
01-10 02:42:29 DEBU block_2a_bn_shortcut (BatchNorm (None, 128, 28, 28)  512         block_2a_conv_shortcut[0][0]     
01-10 02:42:29 DEBU __________________________________________________________________________________________________
01-10 02:42:29 DEBU add_2 (Add)                     (None, 128, 28, 28)  0           block_2a_bn_2[0][0]              
01-10 02:42:29 DEBU                                                                  block_2a_bn_shortcut[0][0]       
01-10 02:42:29 DEBU __________________________________________________________________________________________________
01-10 02:42:29 DEBU block_2a_relu (Activation)      (None, 128, 28, 28)  0           add_2[0][0]                      
01-10 02:42:29 DEBU __________________________________________________________________________________________________
01-10 02:42:29 DEBU block_3a_conv_1 (Conv2D)        (None, 256, 14, 14)  294912      block_2a_relu[0][0]              
01-10 02:42:29 DEBU __________________________________________________________________________________________________
01-10 02:42:29 DEBU block_3a_bn_1 (BatchNormalizati (None, 256, 14, 14)  1024        block_3a_conv_1[0][0]            
01-10 02:42:29 DEBU __________________________________________________________________________________________________
01-10 02:42:29 DEBU block_3a_relu_1 (Activation)    (None, 256, 14, 14)  0           block_3a_bn_1[0][0]              
01-10 02:42:29 DEBU __________________________________________________________________________________________________
01-10 02:42:29 DEBU block_3a_conv_2 (Conv2D)        (None, 256, 14, 14)  589824      block_3a_relu_1[0][0]            
01-10 02:42:29 DEBU __________________________________________________________________________________________________
01-10 02:42:29 DEBU block_3a_conv_shortcut (Conv2D) (None, 256, 14, 14)  32768       block_2a_relu[0][0]              
01-10 02:42:29 DEBU __________________________________________________________________________________________________
01-10 02:42:29 DEBU block_3a_bn_2 (BatchNormalizati (None, 256, 14, 14)  1024        block_3a_conv_2[0][0]            
01-10 02:42:29 DEBU __________________________________________________________________________________________________
01-10 02:42:29 DEBU block_3a_bn_shortcut (BatchNorm (None, 256, 14, 14)  1024        block_3a_conv_shortcut[0][0]     
01-10 02:42:29 DEBU __________________________________________________________________________________________________
01-10 02:42:29 DEBU add_3 (Add)                     (None, 256, 14, 14)  0           block_3a_bn_2[0][0]              
01-10 02:42:29 DEBU                                                                  block_3a_bn_shortcut[0][0]       
01-10 02:42:29 DEBU __________________________________________________________________________________________________
01-10 02:42:29 DEBU block_3a_relu (Activation)      (None, 256, 14, 14)  0           add_3[0][0]                      
01-10 02:42:29 DEBU __________________________________________________________________________________________________
01-10 02:42:29 DEBU block_4a_conv_1 (Conv2D)        (None, 512, 14, 14)  1179648     block_3a_relu[0][0]              
01-10 02:42:29 DEBU __________________________________________________________________________________________________
01-10 02:42:29 DEBU block_4a_bn_1 (BatchNormalizati (None, 512, 14, 14)  2048        block_4a_conv_1[0][0]            
01-10 02:42:29 DEBU __________________________________________________________________________________________________
01-10 02:42:29 DEBU block_4a_relu_1 (Activation)    (None, 512, 14, 14)  0           block_4a_bn_1[0][0]              
01-10 02:42:29 DEBU __________________________________________________________________________________________________
01-10 02:42:29 DEBU block_4a_conv_2 (Conv2D)        (None, 512, 14, 14)  2359296     block_4a_relu_1[0][0]            
01-10 02:42:29 DEBU __________________________________________________________________________________________________
01-10 02:42:29 DEBU block_4a_conv_shortcut (Conv2D) (None, 512, 14, 14)  131072      block_3a_relu[0][0]              
01-10 02:42:29 DEBU __________________________________________________________________________________________________
01-10 02:42:29 DEBU block_4a_bn_2 (BatchNormalizati (None, 512, 14, 14)  2048        block_4a_conv_2[0][0]            
01-10 02:42:29 DEBU __________________________________________________________________________________________________
01-10 02:42:29 DEBU block_4a_bn_shortcut (BatchNorm (None, 512, 14, 14)  2048        block_4a_conv_shortcut[0][0]     
01-10 02:42:29 DEBU __________________________________________________________________________________________________
01-10 02:42:32 DEBU add_4 (Add)                     (None, 512, 14, 14)  0           block_4a_bn_2[0][0]              
01-10 02:42:32 DEBU                                                                  block_4a_bn_shortcut[0][0]       
01-10 02:42:32 DEBU __________________________________________________________________________________________________
01-10 02:42:32 DEBU block_4a_relu (Activation)      (None, 512, 14, 14)  0           add_4[0][0]                      
01-10 02:42:32 DEBU __________________________________________________________________________________________________
01-10 02:42:32 DEBU avg_pool (AveragePooling2D)     (None, 512, 1, 1)    0           block_4a_relu[0][0]              
01-10 02:42:32 DEBU __________________________________________________________________________________________________
01-10 02:42:32 DEBU flatten (Flatten)               (None, 512)          0           avg_pool[0][0]                   
01-10 02:42:32 DEBU __________________________________________________________________________________________________
01-10 02:42:32 DEBU predictions (Dense)             (None, 2)            1026        flatten[0][0]                    
01-10 02:42:32 DEBU ==================================================================================================
01-10 02:42:32 DEBU Total params: 4,897,946
01-10 02:42:32 DEBU Trainable params: 4,823,762
01-10 02:42:32 DEBU Non-trainable params: 74,184
01-10 02:42:32 DEBU __________________________________________________________________________________________________
…
