…
01-04 10:47:38 DEBU 2022-01-04 02:47:38,512 [WARNING] tensorflow: From /usr/local/lib/python3.6/dist-packages/keras/optimizers.py:790: The name tf.train.Optimizer is deprecated. Please use tf.compat.v1.train.Optimizer instead.
01-04 10:47:38 DEBU 
01-04 10:47:38 DEBU __________________________________________________________________________________________________
01-04 10:47:38 DEBU Layer (type)                    Output Shape         Param #     Connected to                     
01-04 10:47:38 DEBU ==================================================================================================
01-04 10:47:38 DEBU Input (InputLayer)              (None, 3, 224, 224)  0                                            
01-04 10:47:38 DEBU __________________________________________________________________________________________________
01-04 10:47:38 DEBU conv1 (Conv2D)                  (None, 40, 112, 112) 5880        Input[0][0]                      
01-04 10:47:38 DEBU __________________________________________________________________________________________________
01-04 10:47:38 DEBU bn_conv1 (BatchNormalization)   (None, 40, 112, 112) 160         conv1[0][0]                      
01-04 10:47:38 DEBU __________________________________________________________________________________________________
01-04 10:47:38 DEBU activation_2 (Activation)       (None, 40, 112, 112) 0           bn_conv1[0][0]                   
01-04 10:47:38 DEBU __________________________________________________________________________________________________
01-04 10:47:38 DEBU block_1a_conv_1 (Conv2D)        (None, 56, 56, 56)   20160       activation_2[0][0]               
01-04 10:47:38 DEBU __________________________________________________________________________________________________
01-04 10:47:38 DEBU block_1a_bn_1 (BatchNormalizati (None, 56, 56, 56)   224         block_1a_conv_1[0][0]            
01-04 10:47:38 DEBU __________________________________________________________________________________________________
01-04 10:47:38 DEBU block_1a_relu_1 (Activation)    (None, 56, 56, 56)   0           block_1a_bn_1[0][0]              
01-04 10:47:38 DEBU __________________________________________________________________________________________________
01-04 10:47:38 DEBU block_1a_conv_2 (Conv2D)        (None, 32, 56, 56)   16128       block_1a_relu_1[0][0]            
01-04 10:47:38 DEBU __________________________________________________________________________________________________
01-04 10:47:38 DEBU block_1a_conv_shortcut (Conv2D) (None, 32, 56, 56)   1280        activation_2[0][0]               
01-04 10:47:38 DEBU __________________________________________________________________________________________________
01-04 10:47:38 DEBU block_1a_bn_2 (BatchNormalizati (None, 32, 56, 56)   128         block_1a_conv_2[0][0]            
01-04 10:47:38 DEBU __________________________________________________________________________________________________
01-04 10:47:38 DEBU block_1a_bn_shortcut (BatchNorm (None, 32, 56, 56)   128         block_1a_conv_shortcut[0][0]     
01-04 10:47:38 DEBU __________________________________________________________________________________________________
01-04 10:47:38 DEBU add_5 (Add)                     (None, 32, 56, 56)   0           block_1a_bn_2[0][0]              
01-04 10:47:38 DEBU                                                                  block_1a_bn_shortcut[0][0]       
01-04 10:47:38 DEBU __________________________________________________________________________________________________
01-04 10:47:38 DEBU block_1a_relu (Activation)      (None, 32, 56, 56)   0           add_5[0][0]                      
01-04 10:47:38 DEBU __________________________________________________________________________________________________
01-04 10:47:38 DEBU block_2a_conv_1 (Conv2D)        (None, 128, 28, 28)  36864       block_1a_relu[0][0]              
01-04 10:47:38 DEBU __________________________________________________________________________________________________
01-04 10:47:38 DEBU block_2a_bn_1 (BatchNormalizati (None, 128, 28, 28)  512         block_2a_conv_1[0][0]            
01-04 10:47:38 DEBU __________________________________________________________________________________________________
01-04 10:47:38 DEBU block_2a_relu_1 (Activation)    (None, 128, 28, 28)  0           block_2a_bn_1[0][0]              
01-04 10:47:38 DEBU __________________________________________________________________________________________________
01-04 10:47:38 DEBU block_2a_conv_2 (Conv2D)        (None, 88, 28, 28)   101376      block_2a_relu_1[0][0]            
01-04 10:47:38 DEBU __________________________________________________________________________________________________
01-04 10:47:38 DEBU block_2a_conv_shortcut (Conv2D) (None, 88, 28, 28)   2816        block_1a_relu[0][0]              
01-04 10:47:38 DEBU __________________________________________________________________________________________________
01-04 10:47:38 DEBU block_2a_bn_2 (BatchNormalizati (None, 88, 28, 28)   352         block_2a_conv_2[0][0]            
01-04 10:47:38 DEBU __________________________________________________________________________________________________
01-04 10:47:38 DEBU block_2a_bn_shortcut (BatchNorm (None, 88, 28, 28)   352         block_2a_conv_shortcut[0][0]     
01-04 10:47:38 DEBU __________________________________________________________________________________________________
01-04 10:47:38 DEBU add_6 (Add)                     (None, 88, 28, 28)   0           block_2a_bn_2[0][0]              
01-04 10:47:38 DEBU                                                                  block_2a_bn_shortcut[0][0]       
01-04 10:47:38 DEBU __________________________________________________________________________________________________
01-04 10:47:38 DEBU block_2a_relu (Activation)      (None, 88, 28, 28)   0           add_6[0][0]                      
01-04 10:47:38 DEBU __________________________________________________________________________________________________
01-04 10:47:38 DEBU block_3a_conv_1 (Conv2D)        (None, 256, 14, 14)  202752      block_2a_relu[0][0]              
01-04 10:47:38 DEBU __________________________________________________________________________________________________
01-04 10:47:38 DEBU block_3a_bn_1 (BatchNormalizati (None, 256, 14, 14)  1024        block_3a_conv_1[0][0]            
01-04 10:47:38 DEBU __________________________________________________________________________________________________
01-04 10:47:38 DEBU block_3a_relu_1 (Activation)    (None, 256, 14, 14)  0           block_3a_bn_1[0][0]              
01-04 10:47:38 DEBU __________________________________________________________________________________________________
01-04 10:47:38 DEBU block_3a_conv_2 (Conv2D)        (None, 232, 14, 14)  534528      block_3a_relu_1[0][0]            
01-04 10:47:38 DEBU __________________________________________________________________________________________________
01-04 10:47:38 DEBU block_3a_conv_shortcut (Conv2D) (None, 232, 14, 14)  20416       block_2a_relu[0][0]              
01-04 10:47:38 DEBU __________________________________________________________________________________________________
01-04 10:47:38 DEBU block_3a_bn_2 (BatchNormalizati (None, 232, 14, 14)  928         block_3a_conv_2[0][0]            
01-04 10:47:38 DEBU __________________________________________________________________________________________________
01-04 10:47:38 DEBU block_3a_bn_shortcut (BatchNorm (None, 232, 14, 14)  928         block_3a_conv_shortcut[0][0]     
01-04 10:47:38 DEBU __________________________________________________________________________________________________
01-04 10:47:38 DEBU add_7 (Add)                     (None, 232, 14, 14)  0           block_3a_bn_2[0][0]              
01-04 10:47:38 DEBU                                                                  block_3a_bn_shortcut[0][0]       
01-04 10:47:38 DEBU __________________________________________________________________________________________________
01-04 10:47:38 DEBU block_3a_relu (Activation)      (None, 232, 14, 14)  0           add_7[0][0]                      
01-04 10:47:38 DEBU __________________________________________________________________________________________________
01-04 10:47:38 DEBU block_4a_conv_1 (Conv2D)        (None, 512, 14, 14)  1069056     block_3a_relu[0][0]              
01-04 10:47:38 DEBU __________________________________________________________________________________________________
01-04 10:47:38 DEBU block_4a_bn_1 (BatchNormalizati (None, 512, 14, 14)  2048        block_4a_conv_1[0][0]            
01-04 10:47:38 DEBU __________________________________________________________________________________________________
01-04 10:47:38 DEBU block_4a_relu_1 (Activation)    (None, 512, 14, 14)  0           block_4a_bn_1[0][0]              
01-04 10:47:38 DEBU __________________________________________________________________________________________________
01-04 10:47:38 DEBU block_4a_conv_2 (Conv2D)        (None, 464, 14, 14)  2138112     block_4a_relu_1[0][0]            
01-04 10:47:38 DEBU __________________________________________________________________________________________________
01-04 10:47:38 DEBU block_4a_conv_shortcut (Conv2D) (None, 464, 14, 14)  107648      block_3a_relu[0][0]              
01-04 10:47:38 DEBU __________________________________________________________________________________________________
01-04 10:47:38 DEBU block_4a_bn_2 (BatchNormalizati (None, 464, 14, 14)  1856        block_4a_conv_2[0][0]            
01-04 10:47:38 DEBU __________________________________________________________________________________________________
01-04 10:47:38 DEBU block_4a_bn_shortcut (BatchNorm (None, 464, 14, 14)  1856        block_4a_conv_shortcut[0][0]     
01-04 10:47:38 DEBU __________________________________________________________________________________________________
01-04 10:47:38 DEBU add_8 (Add)                     (None, 464, 14, 14)  0           block_4a_bn_2[0][0]              
01-04 10:47:38 DEBU                                                                  block_4a_bn_shortcut[0][0]       
01-04 10:47:38 DEBU __________________________________________________________________________________________________
01-04 10:47:38 DEBU block_4a_relu (Activation)      (None, 464, 14, 14)  0           add_8[0][0]                      
01-04 10:47:38 DEBU __________________________________________________________________________________________________
01-04 10:47:38 DEBU yolo_spp_pool_1 (MaxPooling2D)  (None, 464, 14, 14)  0           block_4a_relu[0][0]              
01-04 10:47:38 DEBU __________________________________________________________________________________________________
01-04 10:47:38 DEBU yolo_spp_pool_2 (MaxPooling2D)  (None, 464, 14, 14)  0           block_4a_relu[0][0]              
01-04 10:47:38 DEBU __________________________________________________________________________________________________
01-04 10:47:38 DEBU yolo_spp_pool_3 (MaxPooling2D)  (None, 464, 14, 14)  0           block_4a_relu[0][0]              
01-04 10:47:38 DEBU __________________________________________________________________________________________________
01-04 10:47:38 DEBU yolo_spp_concat (Concatenate)   (None, 1856, 14, 14) 0           yolo_spp_pool_1[0][0]            
01-04 10:47:38 DEBU                                                                  yolo_spp_pool_2[0][0]            
01-04 10:47:38 DEBU                                                                  yolo_spp_pool_3[0][0]            
01-04 10:47:38 DEBU                                                                  block_4a_relu[0][0]              
01-04 10:47:38 DEBU __________________________________________________________________________________________________
01-04 10:47:38 DEBU yolo_spp_conv (Conv2D)          (None, 512, 14, 14)  950272      yolo_spp_concat[0][0]            
01-04 10:47:38 DEBU __________________________________________________________________________________________________
01-04 10:47:38 DEBU yolo_spp_conv_bn (BatchNormaliz (None, 512, 14, 14)  2048        yolo_spp_conv[0][0]              
01-04 10:47:38 DEBU __________________________________________________________________________________________________
01-04 10:47:38 DEBU yolo_spp_conv_lrelu (LeakyReLU) (None, 512, 14, 14)  0           yolo_spp_conv_bn[0][0]           
01-04 10:47:38 DEBU __________________________________________________________________________________________________
01-04 10:47:38 DEBU yolo_expand_conv1 (Conv2D)      (None, 512, 7, 7)    2359296     yolo_spp_conv_lrelu[0][0]        
01-04 10:47:38 DEBU __________________________________________________________________________________________________
01-04 10:47:38 DEBU yolo_expand_conv1_bn (BatchNorm (None, 512, 7, 7)    2048        yolo_expand_conv1[0][0]          
01-04 10:47:38 DEBU __________________________________________________________________________________________________
01-04 10:47:38 DEBU yolo_expand_conv1_lrelu (LeakyR (None, 512, 7, 7)    0           yolo_expand_conv1_bn[0][0]       
01-04 10:47:38 DEBU __________________________________________________________________________________________________
01-04 10:47:38 DEBU yolo_conv1_1 (Conv2D)           (None, 256, 7, 7)    131072      yolo_expand_conv1_lrelu[0][0]    
01-04 10:47:38 DEBU __________________________________________________________________________________________________
01-04 10:47:38 DEBU yolo_conv1_1_bn (BatchNormaliza (None, 256, 7, 7)    1024        yolo_conv1_1[0][0]               
01-04 10:47:38 DEBU __________________________________________________________________________________________________
01-04 10:47:38 DEBU yolo_conv1_1_lrelu (LeakyReLU)  (None, 256, 7, 7)    0           yolo_conv1_1_bn[0][0]            
01-04 10:47:38 DEBU __________________________________________________________________________________________________
01-04 10:47:38 DEBU yolo_conv1_2 (Conv2D)           (None, 512, 7, 7)    1179648     yolo_conv1_1_lrelu[0][0]         
01-04 10:47:38 DEBU __________________________________________________________________________________________________
01-04 10:47:38 DEBU yolo_conv1_2_bn (BatchNormaliza (None, 512, 7, 7)    2048        yolo_conv1_2[0][0]               
01-04 10:47:38 DEBU __________________________________________________________________________________________________
01-04 10:47:38 DEBU yolo_conv1_2_lrelu (LeakyReLU)  (None, 512, 7, 7)    0           yolo_conv1_2_bn[0][0]            
01-04 10:47:38 DEBU __________________________________________________________________________________________________
01-04 10:47:38 DEBU yolo_conv1_3 (Conv2D)           (None, 256, 7, 7)    131072      yolo_conv1_2_lrelu[0][0]         
01-04 10:47:38 DEBU __________________________________________________________________________________________________
01-04 10:47:38 DEBU yolo_conv1_3_bn (BatchNormaliza (None, 256, 7, 7)    1024        yolo_conv1_3[0][0]               
01-04 10:47:38 DEBU __________________________________________________________________________________________________
01-04 10:47:38 DEBU yolo_conv1_3_lrelu (LeakyReLU)  (None, 256, 7, 7)    0           yolo_conv1_3_bn[0][0]            
01-04 10:47:38 DEBU __________________________________________________________________________________________________
01-04 10:47:38 DEBU yolo_conv1_4 (Conv2D)           (None, 504, 7, 7)    1161216     yolo_conv1_3_lrelu[0][0]         
01-04 10:47:38 DEBU __________________________________________________________________________________________________
01-04 10:47:38 DEBU yolo_conv1_4_bn (BatchNormaliza (None, 504, 7, 7)    2016        yolo_conv1_4[0][0]               
01-04 10:47:38 DEBU __________________________________________________________________________________________________
01-04 10:47:38 DEBU yolo_conv1_4_lrelu (LeakyReLU)  (None, 504, 7, 7)    0           yolo_conv1_4_bn[0][0]            
01-04 10:47:38 DEBU __________________________________________________________________________________________________
01-04 10:47:38 DEBU yolo_conv1_5 (Conv2D)           (None, 256, 7, 7)    129024      yolo_conv1_4_lrelu[0][0]         
01-04 10:47:38 DEBU __________________________________________________________________________________________________
01-04 10:47:38 DEBU yolo_conv1_5_bn (BatchNormaliza (None, 256, 7, 7)    1024        yolo_conv1_5[0][0]               
01-04 10:47:38 DEBU __________________________________________________________________________________________________
01-04 10:47:38 DEBU yolo_conv1_5_lrelu (LeakyReLU)  (None, 256, 7, 7)    0           yolo_conv1_5_bn[0][0]            
01-04 10:47:38 DEBU __________________________________________________________________________________________________
01-04 10:47:38 DEBU yolo_conv2 (Conv2D)             (None, 128, 7, 7)    32768       yolo_conv1_5_lrelu[0][0]         
01-04 10:47:38 DEBU __________________________________________________________________________________________________
01-04 10:47:38 DEBU yolo_conv2_bn (BatchNormalizati (None, 128, 7, 7)    512         yolo_conv2[0][0]                 
01-04 10:47:38 DEBU __________________________________________________________________________________________________
01-04 10:47:38 DEBU yolo_conv2_lrelu (LeakyReLU)    (None, 128, 7, 7)    0           yolo_conv2_bn[0][0]              
01-04 10:47:38 DEBU __________________________________________________________________________________________________
01-04 10:47:38 DEBU upsample0 (UpSampling2D)        (None, 128, 14, 14)  0           yolo_conv2_lrelu[0][0]           
01-04 10:47:38 DEBU __________________________________________________________________________________________________
01-04 10:47:38 DEBU concatenate_3 (Concatenate)     (None, 360, 14, 14)  0           upsample0[0][0]                  
01-04 10:47:38 DEBU                                                                  block_3a_relu[0][0]              
01-04 10:47:38 DEBU __________________________________________________________________________________________________
01-04 10:47:38 DEBU yolo_conv3_1 (Conv2D)           (None, 128, 14, 14)  46080       concatenate_3[0][0]              
01-04 10:47:38 DEBU __________________________________________________________________________________________________
01-04 10:47:38 DEBU yolo_conv3_1_bn (BatchNormaliza (None, 128, 14, 14)  512         yolo_conv3_1[0][0]               
01-04 10:47:38 DEBU __________________________________________________________________________________________________
01-04 10:47:38 DEBU yolo_conv3_1_lrelu (LeakyReLU)  (None, 128, 14, 14)  0           yolo_conv3_1_bn[0][0]            
01-04 10:47:38 DEBU __________________________________________________________________________________________________
01-04 10:47:38 DEBU yolo_conv3_2 (Conv2D)           (None, 256, 14, 14)  294912      yolo_conv3_1_lrelu[0][0]         
01-04 10:47:38 DEBU __________________________________________________________________________________________________
01-04 10:47:38 DEBU yolo_conv3_2_bn (BatchNormaliza (None, 256, 14, 14)  1024        yolo_conv3_2[0][0]               
01-04 10:47:38 DEBU __________________________________________________________________________________________________
01-04 10:47:38 DEBU yolo_conv3_2_lrelu (LeakyReLU)  (None, 256, 14, 14)  0           yolo_conv3_2_bn[0][0]            
01-04 10:47:38 DEBU __________________________________________________________________________________________________
01-04 10:47:38 DEBU yolo_conv3_3 (Conv2D)           (None, 128, 14, 14)  32768       yolo_conv3_2_lrelu[0][0]         
01-04 10:47:38 DEBU __________________________________________________________________________________________________
01-04 10:47:38 DEBU yolo_conv3_3_bn (BatchNormaliza (None, 128, 14, 14)  512         yolo_conv3_3[0][0]               
01-04 10:47:38 DEBU __________________________________________________________________________________________________
01-04 10:47:38 DEBU yolo_conv3_3_lrelu (LeakyReLU)  (None, 128, 14, 14)  0           yolo_conv3_3_bn[0][0]            
01-04 10:47:38 DEBU __________________________________________________________________________________________________
01-04 10:47:38 DEBU yolo_conv3_4 (Conv2D)           (None, 256, 14, 14)  294912      yolo_conv3_3_lrelu[0][0]         
01-04 10:47:38 DEBU __________________________________________________________________________________________________
01-04 10:47:38 DEBU yolo_conv3_4_bn (BatchNormaliza (None, 256, 14, 14)  1024        yolo_conv3_4[0][0]               
01-04 10:47:38 DEBU __________________________________________________________________________________________________
01-04 10:47:38 DEBU yolo_conv3_4_lrelu (LeakyReLU)  (None, 256, 14, 14)  0           yolo_conv3_4_bn[0][0]            
01-04 10:47:38 DEBU __________________________________________________________________________________________________
01-04 10:47:38 DEBU yolo_conv3_5 (Conv2D)           (None, 128, 14, 14)  32768       yolo_conv3_4_lrelu[0][0]         
01-04 10:47:38 DEBU __________________________________________________________________________________________________
01-04 10:47:38 DEBU yolo_conv3_5_bn (BatchNormaliza (None, 128, 14, 14)  512         yolo_conv3_5[0][0]               
01-04 10:47:38 DEBU __________________________________________________________________________________________________
01-04 10:47:38 DEBU yolo_conv3_5_lrelu (LeakyReLU)  (None, 128, 14, 14)  0           yolo_conv3_5_bn[0][0]            
01-04 10:47:38 DEBU __________________________________________________________________________________________________
01-04 10:47:38 DEBU yolo_conv4 (Conv2D)             (None, 64, 14, 14)   8192        yolo_conv3_5_lrelu[0][0]         
01-04 10:47:38 DEBU __________________________________________________________________________________________________
01-04 10:47:38 DEBU yolo_conv4_bn (BatchNormalizati (None, 64, 14, 14)   256         yolo_conv4[0][0]                 
01-04 10:47:38 DEBU __________________________________________________________________________________________________
01-04 10:47:38 DEBU yolo_conv4_lrelu (LeakyReLU)    (None, 64, 14, 14)   0           yolo_conv4_bn[0][0]              
01-04 10:47:38 DEBU __________________________________________________________________________________________________
01-04 10:47:38 DEBU upsample1 (UpSampling2D)        (None, 64, 28, 28)   0           yolo_conv4_lrelu[0][0]           
01-04 10:47:38 DEBU __________________________________________________________________________________________________
01-04 10:47:38 DEBU concatenate_4 (Concatenate)     (None, 152, 28, 28)  0           upsample1[0][0]                  
01-04 10:47:38 DEBU                                                                  block_2a_relu[0][0]              
01-04 10:47:38 DEBU __________________________________________________________________________________________________
01-04 10:47:38 DEBU yolo_conv5_1 (Conv2D)           (None, 64, 28, 28)   9728        concatenate_4[0][0]              
01-04 10:47:38 DEBU __________________________________________________________________________________________________
01-04 10:47:38 DEBU yolo_conv5_1_bn (BatchNormaliza (None, 64, 28, 28)   256         yolo_conv5_1[0][0]               
01-04 10:47:38 DEBU __________________________________________________________________________________________________
01-04 10:47:38 DEBU yolo_conv5_1_lrelu (LeakyReLU)  (None, 64, 28, 28)   0           yolo_conv5_1_bn[0][0]            
01-04 10:47:38 DEBU __________________________________________________________________________________________________
01-04 10:47:38 DEBU yolo_conv5_2 (Conv2D)           (None, 128, 28, 28)  73728       yolo_conv5_1_lrelu[0][0]         
01-04 10:47:38 DEBU __________________________________________________________________________________________________
01-04 10:47:38 DEBU yolo_conv5_2_bn (BatchNormaliza (None, 128, 28, 28)  512         yolo_conv5_2[0][0]               
01-04 10:47:38 DEBU __________________________________________________________________________________________________
01-04 10:47:38 DEBU yolo_conv5_2_lrelu (LeakyReLU)  (None, 128, 28, 28)  0           yolo_conv5_2_bn[0][0]            
01-04 10:47:38 DEBU __________________________________________________________________________________________________
01-04 10:47:38 DEBU yolo_conv5_3 (Conv2D)           (None, 64, 28, 28)   8192        yolo_conv5_2_lrelu[0][0]         
01-04 10:47:38 DEBU __________________________________________________________________________________________________
01-04 10:47:38 DEBU yolo_conv5_3_bn (BatchNormaliza (None, 64, 28, 28)   256         yolo_conv5_3[0][0]               
01-04 10:47:38 DEBU __________________________________________________________________________________________________
01-04 10:47:38 DEBU yolo_conv5_3_lrelu (LeakyReLU)  (None, 64, 28, 28)   0           yolo_conv5_3_bn[0][0]            
01-04 10:47:38 DEBU __________________________________________________________________________________________________
01-04 10:47:38 DEBU yolo_conv5_4 (Conv2D)           (None, 128, 28, 28)  73728       yolo_conv5_3_lrelu[0][0]         
01-04 10:47:38 DEBU __________________________________________________________________________________________________
01-04 10:47:38 DEBU yolo_conv5_4_bn (BatchNormaliza (None, 128, 28, 28)  512         yolo_conv5_4[0][0]               
01-04 10:47:38 DEBU __________________________________________________________________________________________________
01-04 10:47:38 DEBU yolo_conv5_4_lrelu (LeakyReLU)  (None, 128, 28, 28)  0           yolo_conv5_4_bn[0][0]            
01-04 10:47:38 DEBU __________________________________________________________________________________________________
01-04 10:47:38 DEBU yolo_conv5_5 (Conv2D)           (None, 64, 28, 28)   8192        yolo_conv5_4_lrelu[0][0]         
01-04 10:47:38 DEBU __________________________________________________________________________________________________
01-04 10:47:38 DEBU yolo_conv5_5_bn (BatchNormaliza (None, 64, 28, 28)   256         yolo_conv5_5[0][0]               
01-04 10:47:38 DEBU __________________________________________________________________________________________________
01-04 10:47:38 DEBU yolo_conv5_5_lrelu (LeakyReLU)  (None, 64, 28, 28)   0           yolo_conv5_5_bn[0][0]            
01-04 10:47:38 DEBU __________________________________________________________________________________________________
01-04 10:47:38 DEBU yolo_conv1_6 (Conv2D)           (None, 360, 7, 7)    829440      yolo_conv1_5_lrelu[0][0]         
01-04 10:47:38 DEBU __________________________________________________________________________________________________
01-04 10:47:38 DEBU yolo_conv3_6 (Conv2D)           (None, 256, 14, 14)  294912      yolo_conv3_5_lrelu[0][0]         
01-04 10:47:38 DEBU __________________________________________________________________________________________________
01-04 10:47:38 DEBU yolo_conv5_6 (Conv2D)           (None, 128, 28, 28)  73728       yolo_conv5_5_lrelu[0][0]         
01-04 10:47:38 DEBU __________________________________________________________________________________________________
01-04 10:47:38 DEBU yolo_conv1_6_bn (BatchNormaliza (None, 360, 7, 7)    1440        yolo_conv1_6[0][0]               
01-04 10:47:38 DEBU __________________________________________________________________________________________________
01-04 10:47:38 DEBU yolo_conv3_6_bn (BatchNormaliza (None, 256, 14, 14)  1024        yolo_conv3_6[0][0]               
01-04 10:47:38 DEBU __________________________________________________________________________________________________
01-04 10:47:38 DEBU yolo_conv5_6_bn (BatchNormaliza (None, 128, 28, 28)  512         yolo_conv5_6[0][0]               
01-04 10:47:38 DEBU __________________________________________________________________________________________________
01-04 10:47:38 DEBU yolo_conv1_6_lrelu (LeakyReLU)  (None, 360, 7, 7)    0           yolo_conv1_6_bn[0][0]            
01-04 10:47:38 DEBU __________________________________________________________________________________________________
01-04 10:47:38 DEBU yolo_conv3_6_lrelu (LeakyReLU)  (None, 256, 14, 14)  0           yolo_conv3_6_bn[0][0]            
01-04 10:47:38 DEBU __________________________________________________________________________________________________
01-04 10:47:38 DEBU yolo_conv5_6_lrelu (LeakyReLU)  (None, 128, 28, 28)  0           yolo_conv5_6_bn[0][0]            
01-04 10:47:38 DEBU __________________________________________________________________________________________________
01-04 10:47:38 DEBU conv_big_object (Conv2D)        (None, 18, 7, 7)     6498        yolo_conv1_6_lrelu[0][0]         
01-04 10:47:38 DEBU __________________________________________________________________________________________________
01-04 10:47:38 DEBU conv_mid_object (Conv2D)        (None, 18, 14, 14)   4626        yolo_conv3_6_lrelu[0][0]         
01-04 10:47:38 DEBU __________________________________________________________________________________________________
01-04 10:47:38 DEBU conv_sm_object (Conv2D)         (None, 18, 28, 28)   2322        yolo_conv5_6_lrelu[0][0]         
01-04 10:47:38 DEBU __________________________________________________________________________________________________
01-04 10:47:38 DEBU bg_permute (Permute)            (None, 7, 7, 18)     0           conv_big_object[0][0]            
01-04 10:47:38 DEBU __________________________________________________________________________________________________
01-04 10:47:38 DEBU md_permute (Permute)            (None, 14, 14, 18)   0           conv_mid_object[0][0]            
01-04 10:47:38 DEBU __________________________________________________________________________________________________
01-04 10:47:38 DEBU sm_permute (Permute)            (None, 28, 28, 18)   0           conv_sm_object[0][0]             
01-04 10:47:38 DEBU __________________________________________________________________________________________________
01-04 10:47:38 DEBU bg_reshape (Reshape)            (None, 147, 6)       0           bg_permute[0][0]                 
01-04 10:47:38 DEBU __________________________________________________________________________________________________
01-04 10:47:38 DEBU md_reshape (Reshape)            (None, 588, 6)       0           md_permute[0][0]                 
01-04 10:47:38 DEBU __________________________________________________________________________________________________
01-04 10:47:38 DEBU sm_reshape (Reshape)            (None, 2352, 6)      0           sm_permute[0][0]                 
01-04 10:47:38 DEBU __________________________________________________________________________________________________
01-04 10:47:38 DEBU bg_anchor (YOLOAnchorBox)       (None, 147, 6)       0           conv_big_object[0][0]            
01-04 10:47:38 DEBU __________________________________________________________________________________________________
01-04 10:47:38 DEBU bg_bbox_processor (BBoxPostProc (None, 147, 6)       0           bg_reshape[0][0]                 
01-04 10:47:38 DEBU __________________________________________________________________________________________________
01-04 10:47:38 DEBU md_anchor (YOLOAnchorBox)       (None, 588, 6)       0           conv_mid_object[0][0]            
01-04 10:47:38 DEBU __________________________________________________________________________________________________
01-04 10:47:38 DEBU md_bbox_processor (BBoxPostProc (None, 588, 6)       0           md_reshape[0][0]                 
01-04 10:47:38 DEBU __________________________________________________________________________________________________
01-04 10:47:38 DEBU sm_anchor (YOLOAnchorBox)       (None, 2352, 6)      0           conv_sm_object[0][0]             
01-04 10:47:38 DEBU __________________________________________________________________________________________________
01-04 10:47:38 DEBU sm_bbox_processor (BBoxPostProc (None, 2352, 6)      0           sm_reshape[0][0]                 
01-04 10:47:38 DEBU __________________________________________________________________________________________________
01-04 10:47:38 DEBU encoded_bg (Concatenate)        (None, 147, 12)      0           bg_anchor[0][0]                  
01-04 10:47:38 DEBU                                                                  bg_bbox_processor[0][0]          
01-04 10:47:38 DEBU __________________________________________________________________________________________________
01-04 10:47:38 DEBU encoded_md (Concatenate)        (None, 588, 12)      0           md_anchor[0][0]                  
01-04 10:47:38 DEBU                                                                  md_bbox_processor[0][0]          
01-04 10:47:38 DEBU __________________________________________________________________________________________________
01-04 10:47:38 DEBU encoded_sm (Concatenate)        (None, 2352, 12)     0           sm_anchor[0][0]                  
01-04 10:47:38 DEBU                                                                  sm_bbox_processor[0][0]          
01-04 10:47:38 DEBU __________________________________________________________________________________________________
01-04 10:47:38 DEBU encoded_detections (Concatenate (None, 3087, 12)     0           encoded_bg[0][0]                 
01-04 10:47:38 DEBU                                                                  encoded_md[0][0]                 
01-04 10:47:38 DEBU                                                                  encoded_sm[0][0]                 
01-04 10:47:38 DEBU ==================================================================================================
…
